DEEP-L/student_tp2/simpleMNIST.pth (torch, 64709 bytes, 2 tensors)

w f8 [784, 10]
-0.009814853806406518 -0.6170387454396573 0.07487061080201508 -1.6164772471067301 -0.19545060543228376 -0.33755041378998296 0.151140860608166 0.08893779042348231
-1.3175020380097018 1.171239885601546 -0.3415313560862304 0.6825282887656741 -1.419644040831192 -0.531274749130398 -0.04600206294797225 0.6950644347914927
-0.06303464355923508 1.0296444723577138 0.07630827399352307 -2.7437825489728542 -1.6748747069321308 2.0261804433243316 -0.5995375126642062 -0.021955314721073847
-0.8364090600425548 -0.5891186554602093 -0.7693204963733031 -0.3840683075704036 0.23561296763398326 -0.2213734084474786 -1.53674001313761 0.8095277919313132
0.254117999200483 0.9832999768070239 0.1295591943794048 1.7733074987969961 -0.1862348826686706 1.470258477157267 -1.5702459489794751 -0.6120110187411223
-0.29343687155209225 -0.5614610865328854 0.2829146842081548 1.1505272090702467 0.5753657896812094 1.4258136688186707 0.4572951899740377 0.6821317211074256
-0.33142868756359023 -0.011102999157949418 -1.0218936752745345 0.18564558752107785 0.2889706614924504 -0.14429685634299916 -1.1403849349643176 -0.08924984543954516
-0.3408188895959192 -0.6170324273714223 -1.1180916842667024 1.0878199929572037 1.5961705641007236 0.38132530870967946 -0.16242052126320738 0.7782993985432337
-0.6498549223232372 1.1372101524916611 1.4830899439465053 -0.7509685869637873 -1.42972070286536 0.33000829726162395 -0.215256661113907 -1.735940324370675
1.3522545456125372 -0.9351644241214145 1.3345750657145665 0.3005675998546817 -1.0802946258370114 0.4146029768566666 0.9354139809720148 0.6780474755228981
-0.15261458102489078 -0.2711483290022068 0.7884600214171468 0.4900888812776581 1.4578629815678383 -0.9911083996669179 1.0271365285971013 -0.945014447963022
-0.7557941986164599 -1.7790692560085284 0.6341508601430719 0.9510992891982095 1.3087710942772075 0.5911754810924963 0.7045342575763338 0.3154474308643508
-0.5275847068981424 0.1861378317237017 -1.1031709706157014 0.7894520015273767 -2.6839540317427812 0.05186371550387472 -1.2372193610615085 0.2473154082458319
1.2338217571370704 -1.5030006382133445 0.30426563639312004 0.4510073416151867 -0.5906840854821607 -2.4449506312114724 -0.8905084340127879 0.8251847281429033
-0.9563812474068603 0.31960984695147704 0.014695071093472402 0.5998246648208372 0.7876872122878716 -0.3607652216917969 0.03933259701190125 0.6689302008362122
-0.5385972753738449 -1.9514834781582533 1.3801939772220115 -0.5353740475456502 -0.4645535446173124 1.2326420562460025 0.5710958114114224 -1.3457055189097726
1.5249335646307312 -1.7429539416721676 -0.39120966545198455 0.838338892867617 -0.5218657047666719 -0.2525871071183471 -0.6854890279950762 -0.408178719599635
-0.31536685055212194 -1.3878326297367416 -0.6681812928542189 0.2874877939759135 0.33715744065561176 -0.6994601779781704 0.4742990747439915 0.7070983738348485
0.49116073606607047 0.5345071458562312 -1.0827795123788244 0.7000289475100623 0.6438249530202773 -0.448172034325139 1.129357041558041 2.72932342053892
-0.24533153417703787 2.683978086373933 -0.22479887598573248 -1.3898947380613464 1.066935215853861 2.1357730494429856 -1.524662873003076 0.5473028707318133
-0.5434636261235689 1.0074788232431822 0.4918470110957637 0.8331977664185982 -1.1072006278597013 -0.6584109556072514 0.8313637903586384 0.7067200254340753
1.8059415928458271 -0.280667569388298 0.17471023568580568 1.249500455754123 -0.05842535649017522 -0.7867695341744958 -0.5367430961516343 0.42264552750529016
-1.1006327916231105 -0.19328359566461212 1.9389397753438415 -0.6458487122486236 1.1219540851192586 0.030138047929472597 0.20477840199589284 -0.07005262608584721
0.10267957279510255 0.1286032449741194 1.0745152661918733 -1.0011486146312785 0.4102333707160023 -0.9208158216757787 1.9502518005685752 -1.3883479713512334
0.5013363054343272 2.1471677974470165 1.8709585973768121 0.21771606609838895 -0.7053798517714728 -1.0357749585469296 -0.41615500433402586 -1.2203549353673921
0.33145297387662354 2.0735229234722925 0.690841934541947 0.4790240605997278 2.0958411293042953 1.1601302696048994 -0.2893073728403361 -1.0087633878106892
0.8546897303585531 0.29709441244135576 0.3634688089189057 0.5874555226591678 -1.6113093021757845 -0.6541094971102868 -0.9709229235008592 -0.1847554704578803
-0.42344233824427474 1.7566179387507688 -0.48358125172905014 1.2234872778253825 0.25039033987524023 -0.340868385510377 1.0310494013138238 0.2137453914070848
-1.0420120854961834 -0.09771593477253115 -1.0635900030292644 -0.9848969745452546 -0.3513302097866037 -3.4833585844070183 1.497158230568197 -0.28480032977100245
3.6135866216979 0.926248124714824 0.44057476213506447 0.3105313479367157 -0.30219742115869863 1.6558613863627925 0.9563271835835012 -2.8636771222730064
-0.508222039646905 0.24910094088611864 -0.08908781038660611 1.2543808049930836 -0.15277450013133317 1.6168034282870187 0.8142557767860179 -0.34158540964021894
-0.30371781860176067 0.2933411258699557 -0.2135594707875407 -0.5181322566061134 0.04046041619749328 0.13073060022580466 -0.952895931237997 -1.4188723878529015
00000000: 2586 e860 cf19 84bf fee6 000a c8be e3bf
00000010: c981 d368 b82a b33f 03d3 f03e 17dd f9bf
00000020: d853 2883 8604 c9bf f0ab fe0c 6d9a d5bf
00000030: 0460 b36e 9558 c33f e352 3f85 a0c4 b63f
00000040: eaa3 5a04 7d14 f5bf e9de c608 66bd f23f
00000050: 9eba 3c55 a6db d5bf 40fd da90 45d7 e53f
00000060: d54c 75ab dcb6 f6bf cc94 16e7 3300 e1bf
00000070: 3ef5 d117 958d a7bf 9659 01c5 f73d e63f
00000080: 3218 9ad4 0923 b0bf 7389 747b 6c79 f03f
00000090: 4365 3765 f088 b33f 3464 d943 44f3 05c0
000000a0: c5bc b26b 49cc fabf 77fb 9e17 9e35 0040
000000b0: 42c6 334b 692f e3bf 8935 cd3a 747b 96bf
000000c0: 79bf deee dcc3 eabf 6c48 d55d 0fda e2bf
000000d0: 3a1b 8204 469e e8bf 1b7a 1c3d 9394 d8bf
000000e0: fe2f 40d3 9028 ce3f 4a34 bebe f655 ccbf
000000f0: 2017 2eb2 7c96 f8bf e589 f1d3 a6e7 e93f
00000100: 9d06 f923 7843 d03f 3466 5183 3177 ef3f
00000110: 29b9 604b 6595 c03f c25a 11af 775f fc3f
00000120: e8d9 376d 8bd6 c7bf 65ea c0c0 2d86 f73f
00000130: 7bb1 5837 ba1f f9bf c81c c921 9895 e3bf
00000140: 3b6f b071 abc7 d2bf f154 943d 7df7 e1bf
00000150: 3edc 0e31 461b d23f 7cd6 0138 8f68 f23f
00000160: 5460 3d84 6569 e23f 6541 5cfe 21d0 f63f
00000170: 519f 630b 5344 dd3f 0a0f 37e7 05d4 e53f
00000180: 36ad 82ab 2036 d5bf f7d1 2a52 2bbd 86bf
00000190: a4b1 b42e ad59 f0bf b85d 860f 3cc3 c73f
000001a0: 9544 27cd 7e7e d23f 4853 74c3 5178 c2bf
000001b0: 845d 0846 043f f2bf 9ffd 55ef 13d9 b6bf
000001c0: c01a 2b08 facf d5bf 5437 04ca babe e3bf
000001d0: 43ae 1d1b b4e3 f1bf 6efa daef b567 f13f
000001e0: 5d68 3a25 ea89 f93f 2fe4 8244 a267 d83f
000001f0: f42a 8315 32ca c4bf 49ab e723 d4e7 e83f
00000200: cbbb d08c 9ccb e4bf fe17 da45 0332 f23f
00000210: 6b6d 6485 bcba f73f 49a6 2a46 ef07 e8bf
00000220: 9f88 d3d0 22e0 f6bf b66d 091f db1e d53f
00000230: 467d ddbf 878d cbbf c6ac 8f5c 69c6 fbbf
00000240: fa5e 94a9 d5a2 f53f 267e 3ff1 ddec edbf
00000250: 5dd1 5462 6b5a f53f 933c e7e2 7f3c d33f
00000260: 7a3b 8004 e348 f1bf b81c 9bec da88 da3f
00000270: fcde 0f4d e9ee ed3f db32 909e 90b2 e53f
00000280: d483 32e5 df88 c3bf 5d7d 5b85 7e5a d1bf
00000290: 5715 c682 103b e93f 1121 4ec1 9d5d df3f
000002a0: 6d20 3e22 6853 f73f a887 6bf6 28b7 efbf
000002b0: d29f 6db6 266f f03f 22f5 87f0 8e3d eebf
000002c0: 1f0e b250 772f e8bf ca02 fe52 1177 fcbf
000002d0: b46e a1be f64a e43f 705d cbc6 676f ee3f
000002e0: 8cee 7df5 b9f0 f43f a8a8 afd7 e8ea e23f
000002f0: bc76 666d 8b8b e63f dada ca6b 4a30 d43f
00000300: 9de9 bf52 f9e1 e0bf 799c e64d 5dd3 c73f
00000310: 650e 8b9a 96a6 f1bf 644c 0ad8 3043 e93f
00000320: b56b 32e4 bc78 05c0 735a e083 e18d aa3f
00000330: 8dcb 5b87 a6cb f3bf f53a 1b03 08a8 cf3f
00000340: 99f3 ffe1 bbbd f33f 24e5 af65 4a0c f8bf
00000350: 99b9 6693 1679 d33f 638f 9fe5 4ddd dc3f
00000360: ca3b ad4f e2e6 e2bf 471a cb46 428f 03c0
00000370: 07b5 1c8b 0b7f ecbf 9709 91cd e967 ea3f
00000380: 44d8 83d8 ac9a eebf d5b6 08dc 7c74 d43f
00000390: a124 120e 7318 8e3f 46ab d77e c331 e33f
000003a0: 471f 08d0 bb34 e93f 4cd4 2c03 c716 d7bf
000003b0: 0b6d aaf3 6623 a43f 69be fc4e e067 e53f
000003c0: 7940 6e5a 303c e1bf 05fc 55bd 4639 ffbf
000003d0: 16e0 a447 4615 f63f 31be 2ac1 c821 e1bf
000003e0: add2 57ca 3ebb ddbf 2b03 74e0 e6b8 f33f
000003f0: eaa0 1cb9 6a46 e23f 183a 9c82 0288 f5bf
00000400: 4b96 cabc 2066 f83f f7a8 1eac 23e3 fbbf
00000410: 38b4 bf43 9409 d9bf b499 fa15 acd3 ea3f
00000420: 220f dcb4 1fb3 e0bf 2ebb 1d1d 632a d0bf
00000430: 892e a0af 86ef e5bf 29a1 e6a2 991f dabf
00000440: dd49 5771 f82e d4bf dda7 d0fc 8f34 f6bf
00000450: a973 13bc bd61 e5bf 080c 4834 3366 d23f
00000460: ad02 4ecd fc93 d53f 9aa8 a84f fa61 e6bf
00000470: ad1a a381 ea5a de3f 579d d5c4 8ca0 e63f
00000480: 76ea 9e70 2d6f df3f 3cc9 ddba ae1a e13f
00000490: 5122 279c 1053 f1bf 7ae3 791b a366 e63f
000004a0: 3844 b2c9 369a e43f f520 9ac1 d9ae dcbf
000004b0: 4ffc 6fb0 d811 f23f 445f 7b84 a7d5 0540
000004c0: 9fe3 fb11 0667 cfbf ef40 c180 c978 0540
000004d0: d9a4 44a6 35c6 ccbf 0db2 cd43 023d f6bf
000004e0: 44b0 30a9 2a12 f13f 5949 382e 1016 0140
000004f0: eb93 8fe5 0465 f8bf 0a9a 594f 8183 e13f
00000500: 8785 98d4 0d64 e1bf 5ddf 531d a21e f03f
00000510: 76aa d2e2 6b7a df3f b1c7 bb5c 8ea9 ea3f
00000520: 124a 6c01 18b7 f1bf fb28 35da b311 e5bf
00000530: 0e68 553c 889a ea3f 525d 9550 739d e63f
00000540: c324 fc02 23e5 fc3f e783 e41b 75f6 d1bf
00000550: b003 46ae e75c c63f 1dd1 9c30 f4fd f33f
00000560: b0cf c3a6 ede9 adbf 7c98 584d 372d e9bf
00000570: d566 8adb ff2c e1bf 9ee5 9bd3 9f0c db3f
00000580: b5d2 4e21 319c f1bf 46cc 1d51 84bd c8bf
00000590: 063f c0b6 e505 ff3f 90b0 28eb caaa e4bf
000005a0: 8b36 7320 86f3 f13f bcb3 e328 82dc 9e3f
000005b0: a5ef bfbd 2d36 ca3f 23a2 090a f8ee b1bf
000005c0: 9949 1f5f 3549 ba3f 8662 a935 1276 c03f
000005d0: 9e8c 75eb 3631 f13f ca6e e468 b404 f0bf
000005e0: 2aff bc77 4341 da3f 2c94 f7bd 5277 edbf
000005f0: aa83 663b 3b34 ff3f 6fbe c65c ac36 f6bf
00000600: b269 846f f20a e03f 6c79 684f 662d 0140
00000610: 7d74 3e48 72ef fd3f d669 dabb 1ede cb3f
00000620: a9b4 53c4 7892 e6bf db98 4fc3 8892 f0bf
00000630: b89b 6b99 48a2 dabf 6da4 8ee5 9286 f3bf
00000640: 1292 bd88 8636 d53f f78e be2f 9396 0040
00000650: 6204 728b 601b e63f 1078 9188 54a8 de3f
00000660: 0cca 9f5a 48c4 0040 e2d7 f0c1 e48f f23f
00000670: abd1 3512 0384 d2bf 03c9 0014 e523 f0bf
00000680: d3be 0347 9e59 eb3f 29a3 5048 9803 d33f
00000690: b70e dbad 1243 d73f 709f 3586 6fcc e23f
000006a0: 855e 4943 ecc7 f9bf 1cef 420a 77ee e4bf
000006b0: ccee 6bf3 cc11 efbf 13d5 af37 11a6 c7bf
000006c0: 3d0f a0e4 ad19 dbbf 1306 6869 1b1b fc3f
000006d0: 11a4 48c7 fef2 debf 3750 5565 6793 f33f
000006e0: 1fe7 3f34 6506 d03f 1279 00a2 c9d0 d5bf
000006f0: 8640 33a8 2d7f f03f 9fcf e14c 025c cb3f
00000700: c5e2 53dd 14ac f0bf 3066 2558 e903 b9bf
00000710: cccf 75f3 7604 f1bf 233d f3a8 4684 efbf
00000720: 8a56 48b4 317c d6bf e926 021b ebdd 0bc0
00000730: 63a4 5330 5cf4 f73f 046a 9029 2b3a d2bf
00000740: 14a5 4b1a a0e8 0c40 3c35 741b d3a3 ed3f
00000750: 8509 b47c 6032 dc3f eb57 f1df bedf d33f
00000760: 40fa 33da 3357 d3bf d932 5282 687e fa3f
00000770: a88a 3877 3b9a ee3f 47ba 138d cfe8 06c0
00000780: d679 ecdd 5a43 e0bf 5f1d 4125 8ae2 cf3f
00000790: 4b2d 1570 75ce b6bf a2ce 629b f111 f43f
000007a0: 8f08 dd64 1d8e c3bf d6da 8845 6dde f93f
000007b0: 3000 7c21 620e ea3f 2183 cc0c 89dc d5bf
000007c0: 75d9 86dc 1c70 d3bf d9ba 8bdb 19c6 d23f
000007d0: 854b 64af ea55 cbbf ad07 2419 8a94 e0bf
000007e0: bd99 b348 3ab7 a43f 3934 47c2 c7bb c03f
000007f0: c213 a59b 1f7e eebf 0569 7088 b3b3 f6bf

b f8 [10]
-0.00011076805294396802 0.004661827582107704 0.07239070669437521 -0.011680249767761735 0.20665603652133632 -0.012112319544055849 -0.0006397748806679468 -0.5858845041171702
0.05930403897866096 0.09179150812304614
00000000: a0c0 caa8 8409 1dbf c26d 13d0 4718 733f
00000010: 3163 c985 3288 b23f 09db 1796 d0eb 87bf
00000020: cfa7 307b b473 ca3f 2639 9002 58ce 88bf
00000030: 5a09 3a18 d2f6 44bf 5753 0ddc 90bf e2bf
00000040: dc3c de57 195d ae3f 6762 70f5 a57f b73f
