DEEP-L/student_tp2/simpleMNIST.pth (torch, 64709 bytes, 2 tensors)

w f8 [784, 10]
-0.058470758798795944 -0.8727901066443413 0.5334939282226384 1.852609256560154 1.0909542259260923 0.5901459235299232 -0.5949817763253065 0.7795621532385638
0.013982033958259395 -0.3735261867644566 0.2783044289968878 0.392835460966261 -0.48465553667293615 1.237698290594516 0.9915246672240811 -2.738738203353096
1.0682903382599729 0.30265806194924444 -0.1629631074560668 1.54660121926466 -1.8949500745881442 -0.38076095087688966 0.7169645329788369 1.378458878378749
-0.8294715055318403 -0.7932746842594455 -0.664360715801463 0.1478185143839964 0.11182238389137285 0.8378470034030407 -1.1993212138975036 -1.4721404338451722
-2.1324797721765867 1.4823939253838236 -0.19145975022073056 -0.3657580715739714 -1.2774501918216234 0.030619833127015793 0.043236735688121766 -0.3133622283348733
-0.5445532104548556 0.5960689600832957 1.4393577131510902 1.4151252711925524 0.19504470462996662 0.07708895728868423 0.12516313979534213 0.9553792438959836
-0.9950048882571552 -0.14680139410661833 0.6192909276881917 0.8100171517182873 -0.5015514938506506 -0.1873001210836115 -0.0761800481850173 0.5322072162748197
0.036535139101016065 -0.7750464953426724 2.0071288670698655 0.03178202210717917 -0.7984463499617458 0.4188760467564393 0.5204960298981457 -0.6320117974458268
1.8931278787207502 2.516620129650108 -0.8348772655605113 -0.8090481193659415 -0.38764950589905417 0.7618036471168457 -0.1334610479033801 -1.1883948785714538
-1.672542212764113 0.5798405547725217 1.4650083863993884 0.4921032944076111 -0.47675329482035805 1.4709649656707424 -0.503928223267206 -0.5547591990757378
1.0826659182605085 -1.0376622004066538 -0.2228753917467964 -1.2057399548290428 -0.2923611245594395 0.04816415288809054 1.365858728877089 0.7715460361130587
-1.217545213857923 2.135324655844051 -1.1098861839965035 0.4491584605433953 1.4256251710561176 0.3582886429769175 -0.0034853725474212486 -0.06930848465560197
-0.7528473336854857 0.65899368040539 -0.5064590086757104 1.755059359671894 0.1604860171288435 0.18971716254961282 0.568053055309108 0.3790489379022747
1.3930305490960901 -1.3325995635077343 2.3875928077580912 0.8045128048822954 -0.07224428014823935 0.6257249526202292 1.2102068891583297 -0.6111227001538789
-0.03556809374596577 -0.3883344849994688 -1.6343446782668807 -0.21834035122729248 -1.0660073945323387 -0.030128831906079203 -0.27822270482290046 -1.5275367291095074
3.331897254033005 -0.1146894381945109 -1.479389022599601 0.6294837653686192 1.9056247193996565 -0.34475344959490317 2.517729702745146 -1.4894089043366934
-0.4110177489191907 0.28235598722321403 -0.15215992282246601 0.16010628941242586 0.6498604586447851 -0.39928659150683976 -0.030271110600883777 0.0847189586267287
0.6386729742917302 0.4827913555888907 0.03821169095447835 -0.6177836702397073 0.340535956628688 -0.11887718044073103 -0.8767532415840206 -1.2886409961024141
-1.2289564241228812 0.1582442850337183 -0.6926707460646409 -1.1117681565682704 0.2254649459289285 0.18396842868564212 -3.0133423821862433 1.4328087702924457
-2.688570821595025 -0.846258126010967 0.7521776560831807 -0.4746724426311797 -1.0494182495327977 1.0536604836723984 -0.2786583500197384 -2.4709781122588415
-0.41074727551296325 1.3981242476279387 -1.4027127609791152 -0.1383577643134161 -0.4103892409310112 0.07617189366132603 0.458329380636367 0.28382204120516225
-1.564541777686183 -0.4797124349718254 2.395188975597637 2.2168200052897764 -0.6300421179296898 -2.620401036602813 -1.1140094490699912 -0.5115066461518863
1.186413453594569 0.6607168801075333 -1.1481152652485385 0.05503973064812592 -2.4139678573358854 -1.7292893667698552 -0.19753492665232816 0.9127627778869846
1.2029219032055678 -0.7745645170039136 -0.6243349510543033 -0.5355975203424057 0.5156332999315979 0.8279532543763883 -0.10563540470127297 -0.158304209332312
-1.8812527778863772 -0.8395027208089281 0.39722798210518845 -0.5015829360888137 -0.2833142869807463 0.15331275721893706 0.4263099620668387 0.22414394199833151
0.13249832696067748 0.47207804606165543 -0.435123168286765 1.2126478010421846 0.7152470205840208 0.4941074636372789 -0.9111892941296836 0.38055011318588466
0.5185289256289528 -1.807481768433467 0.8095779178357517 -0.2082218860528481 2.0579834485451727 -0.259863549963343 1.088878605252832 -0.11244195794877768
-0.4213332614994976 1.3168421330921163 0.42093572560900255 -0.6538193625798797 -0.6844278086990384 1.040133840950688 -1.0090464419316345 -0.280090725940716
-1.1268987389433502 -0.6729539558758354 -0.6858368831051599 0.3138015609898889 -0.09180583496180436 0.6373641406777723 0.3605924766645724 0.009265363070060886
-0.0564235312132925 -0.9021096306418516 -0.7461917063166466 0.26383694167593175 -1.1345714277954118 -0.35156072926829346 -0.2829090585443482 -0.046872645710845116
0.6437601533859844 0.23106473797420987 -0.7186806989088332 -0.17074656095428903 -0.2999702363610153 0.7554159005416694 -0.2073237561845289 0.9194132375369791
-0.5896872525490391 -0.616881950214477 -0.29353527811635366 -1.1121249323269546 -0.32913868204134317 0.543456137248619 0.07383095025658287 -0.9757430414427091
00000000: f252 a019 e1ef adbf dee9 8984 e5ed ebbf
00000010: f195 cadb 6112 e13f 7115 939a 49a4 fd3f
00000020: a991 1c6b 8c74 f13f 37b8 2db4 79e2 e23f
00000030: cc0f e138 170a e3bf b37c 2b54 2cf2 e83f
00000040: 5185 a8d4 9ca2 8c3f 6496 1661 dae7 d7bf
00000050: dae8 3761 bdcf d13f 88c9 6358 3724 d93f
00000060: 4c7a f5a7 9804 dfbf 62b2 06b9 9ccd f33f
00000070: 65f3 5cf0 91ba ef3f a4a8 3d93 efe8 05c0
00000080: 8b59 179c b717 f13f f755 7ceb bf5e d33f
00000090: 443a 7da0 f9db c4bf 8620 8beb e0be f83f
000000a0: 9c8a 5e2b b751 febf f00b e72d 635e d8bf
000000b0: 0f27 b19a 5ff1 e63f f647 98e5 2a0e f63f
000000c0: f123 a7d3 078b eabf 0d73 3497 8162 e9bf
000000d0: 72a9 6367 7142 e5bf 94e3 8292 b7eb c23f
000000e0: 3532 c649 64a0 bc3f 7a5d d584 a4cf ea3f
000000f0: b86b f170 6b30 f3bf 8ebf a720 e38d f7bf
00000100: 2e0a 078e 510f 01c0 5b00 55b1 e2b7 f73f
00000110: 1364 d9ca c081 c8bf 8320 ea8a 9468 d7bf
00000120: e848 c29c 6f70 f4bf c6db 8e37 ce5a 9f3f
00000130: ba55 881b 2023 a63f 6fff 9f72 200e d4bf
00000140: aebb bada fa6c e1bf d3fd 3636 ff12 e33f
00000150: 23ab 13f4 9b07 f73f 073e 7865 5aa4 f63f
00000160: 5164 d291 39f7 c83f 2609 7016 1abc b33f
00000170: 41f7 0a84 5805 c03f 44ef f97d 7792 ee3f
00000180: 7496 cd7d 14d7 efbf 1dfa 5859 63ca c2bf
00000190: 4a2b 2435 3bd1 e33f 1a88 fa16 a9eb e93f
000001a0: d326 ebb7 b50c e0bf 4ca4 4b4b 73f9 c7bf
000001b0: 65f6 8f1f 8980 b3bf be0e 936d d707 e13f
000001c0: 26f6 2fd7 bbb4 a23f c909 cc4e 2ecd e8bf
000001d0: 7e61 5794 990e 0040 9f27 1ab3 bb45 a03f
000001e0: d647 165c df8c e9bf 1a63 797a ddce da3f
000001f0: 2f88 434a e7a7 e03f 7ee9 16ce 7039 e4bf
00000200: 0c06 6475 404a fe3f 826b 0abc 0922 0440
00000210: a333 f886 50b7 eabf 0d25 b2e1 b8e3 e9bf
00000220: 6568 89df 3fcf d8bf 5ee4 ca0a b260 e83f
00000230: d477 046a 4015 c1bf 2d2c 2359 aa03 f3bf
00000240: 7c05 909f bbc2 fabf 2d8f 74c7 0d8e e23f
00000250: b937 3fa2 ac70 f73f db02 efd0 9e7e df3f
00000260: 33e0 6040 2083 debf b2e1 518f 1289 f73f
00000270: 62d9 ce14 2e20 e0bf 2fef 255d 96c0 e1bf
00000280: 5ac3 767f 9952 f13f efab f0ad 439a f0bf
00000290: ed5d 514b 2e87 ccbf 448a 97fa b54a f3bf
000002a0: 5cb1 266f 0bb6 d2bf 85df fcca f8a8 a83f
000002b0: 4dbb b7ae 8eda f53f 45d9 0e50 81b0 e83f
000002c0: d9bc aeb0 107b f3bf 8e8a d917 2515 0140
000002d0: 6bc1 e803 18c2 f1bf 935b b020 03bf dc3f
000002e0: 9ba5 e056 5ccf f63f 194d 077d 33ee d63f
000002f0: 62ab 6023 5b8d 6cbf 6c5e ee6a 33be b1bf
00000300: 32eb a14a 5317 e8bf 1494 33ea 7916 e53f
00000310: 30db e085 e934 e0bf 9345 851f b914 fc3f
00000320: 954f 8449 ce8a c43f 01fc 51e8 a648 c83f
00000330: 8541 de99 7d2d e23f 6aec f779 5642 d83f
00000340: 6525 ab66 da49 f63f 9edf 7eeb 5352 f5bf
00000350: f4e2 0b42 ca19 0340 94d8 45a3 91be e93f
00000360: c74b 8fe4 997e b2bf eb70 f955 f005 e43f
00000370: 4543 25e6 015d f33f c921 6031 518e e3bf
00000380: 4a08 d72e fb35 a2bf 85d4 3ee2 78da d8bf
00000390: 2dc4 f89a 4626 fabf 4d8d f59d 93f2 cbbf
000003a0: 12f8 0cc5 5d0e f1bf a72b d0ae 17da 9ebf
000003b0: 6804 8e9a 66ce d1bf 246d 6f5a ca70 f8bf
000003c0: b6a1 5dbf b9a7 0a40 2df6 3d7a 495c bdbf
000003d0: ed06 e2d2 93ab f7bf 84e0 3323 bb24 e43f
000003e0: cb54 8458 707d fe3f ec5e ccc5 7010 d6bf
000003f0: 67aa 6b78 4f24 0440 e7f4 676e 9ed4 f7bf
00000400: ddbd 6b63 1d4e dabf 1d06 bdd8 1e12 d23f
00000410: 6b66 24f2 f979 c3bf 0f84 74e6 5c7e c43f
00000420: 24f9 1a29 a8cb e43f 3c34 1059 e98d d9bf
00000430: d075 2dd8 63ff 9ebf 7d29 a744 24b0 b53f
00000440: 4581 2d4e 0270 e43f 43ee c2b6 0de6 de3f
00000450: 28dd f295 7b90 a33f 26d6 7542 e2c4 e3bf
00000460: 3b44 3553 57cb d53f 38cf 3b22 bc6e bebf
00000470: cb7d 68d0 5c0e ecbf 39b7 6805 469e f4bf
00000480: f111 1d36 cea9 f3bf 22d6 7f46 5941 c43f
00000490: 30cb 27d7 5b2a e6bf 6e1e 1368 cdc9 f1bf
000004a0: 3b5f 940c 09dc cc3f 8cc5 5908 478c c73f
000004b0: 0c20 3940 531b 08c0 9d3f 9de3 c8ec f63f
000004c0: 07d8 3d6b 3182 05c0 8a1f e6eb 8b14 ebbf
000004d0: 2318 35e0 d611 e83f 6074 5a86 0861 debf
000004e0: 5a1a 59ca 6aca f0bf 2e5e 6718 cbdb f03f
000004f0: ece4 05d5 89d5 d1bf b144 2a2c 90c4 03c0
00000500: 2ff4 cff0 ae49 dabf d8e7 f487 b75e f63f
00000510: 0765 a1ef 8271 f6bf 9dd8 6f0c b5b5 c1bf
00000520: 0b74 1b3c d143 dabf 4f58 2650 0080 b33f
00000530: b343 28c1 4455 dd3f 790c 37ec 232a d23f
00000540: ab34 86f5 5c08 f9bf a910 ecc8 9bb3 debf
00000550: e773 6fd6 5829 0340 81b4 7e20 0cbc 0140
00000560: fa89 7316 4e29 e4bf 9de8 94d1 94f6 04c0
00000570: a80c 7392 fbd2 f1bf 7f16 9d2f 435e e0bf
00000580: c491 6bac 8cfb f23f a743 ffb9 9724 e53f
00000590: 507e c41c ae5e f2bf 0c8c 3ae6 2a2e ac3f
000005a0: 94d2 4661 ce4f 03c0 a18d b953 2bab fbbf
000005b0: 9b0e e510 d348 c9bf 95fb 0049 5a35 ed3f
000005c0: 538f 9e09 2b3f f33f 2390 a586 3bc9 e8bf
000005d0: 52e5 904a 8dfa e3bf f80e 3669 9d23 e1bf
000005e0: a7e9 fd67 1180 e03f 383a c5d2 977e ea3f
000005f0: 88df 7d00 ec0a bbbf ab61 f3f4 4f43 c4bf
00000600: 8f7f 4883 9c19 febf 2ce0 58cf 34dd eabf
00000610: b3a9 0cea 2e6c d93f a975 57a8 f70c e0bf
00000620: 6b99 443f d221 d2bf 624f 289f c09f c33f
00000630: 044f 4294 a948 db3f 7f5b 3daa bfb0 cc3f
00000640: ca10 8986 b4f5 c03f 1da4 3fd6 8636 de3f
00000650: 0282 61d8 0ed9 dbbf 12ae 7061 0167 f33f
00000660: ab08 3fb8 4de3 e63f 1906 42e9 749f df3f
00000670: f912 5873 7628 edbf 99d6 a7dc ee5a d83f
00000680: 5f67 33f9 c997 e03f 979b b800 72eb fcbf
00000690: f362 15f3 0fe8 e93f 2547 74c7 03a7 cabf
000006a0: c0af b906 c076 0040 17f6 20ba 9aa1 d0bf
000006b0: 0800 eef8 0b6c f13f c294 1604 ffc8 bcbf
000006c0: f5de b6c8 1ff7 dabf 2002 7a0e c911 f53f
000006d0: 455b cd65 9cf0 da3f 73b5 7895 16ec e4bf
000006e0: e5ba da25 d5e6 e5bf 8189 e561 63a4 f03f
000006f0: 52dd c3e1 0d25 f0bf 7102 f5a6 01ed d1bf
00000700: 32a5 daf8 c607 f2bf d36a 06bc d688 e5bf
00000710: b978 ea30 60f2 e5bf 1ea9 7824 5315 d43f
00000720: 3630 be52 9680 b7bf 6755 7b7b 4965 e43f
00000730: 924f 9d77 f213 d73f 48c9 f8fa b7f9 823f
00000740: f564 928a 8be3 acbf b56d 2004 15de ecbf
00000750: 58a5 e56d cde0 e7bf e662 fe56 b4e2 d03f
00000760: 94b7 955e 3427 f2bf 89f9 b092 f87f d6bf
00000770: 022b 8c98 2e1b d2bf eb65 cf00 b1ff a7bf
00000780: 0958 a8e4 ae99 e43f 47d4 6d82 8793 cd3f
00000790: 3a8e 42aa 6eff e6bf 8e00 9af7 05db c5bf
000007a0: b069 bc5c b632 d3bf 348e 76f7 5d2c e83f
000007b0: ff8a 3fb8 9589 cabf c162 574f d56b ed3f
000007c0: 701e 12cd b7de e2bf 7f3e 3537 7fbd e3bf
000007d0: 25d9 ee30 48c9 d2bf 5791 5683 43cb f1bf
000007e0: c5d4 cdb0 9b10 d5bf c362 0920 fe63 e13f
000007f0: 44dd c8cc 95e6 b23f e678 8978 4939 efbf

b f8 [10]
0.3783908320952539 -1.3268710138676783e-05 0.005042696270568073 0.28792971002693696 0.2584198285285797 -0.003275572207015809 -0.13810459187886986 -0.017708518405201153
-0.3007363482331176 0.03466361147831857
00000000: 5624 3d2e 8e37 d83f b976 a8a2 95d3 ebbe
00000010: f750 0d79 a6a7 743f 8132 07bc 706d d23f
00000020: 6cc3 0a52 f389 d03f 1a7b 2770 5fd5 6abf
00000030: c609 c648 69ad c1bf dfd0 a48d 2e22 92bf
00000040: 214d 18ab 433f d3bf e53d 52cb 6dbf a13f
