DEEP-L/student_tp2/simpleMNIST.pth (torch, 64709 bytes, 2 tensors)

w f8 [784, 10]
0	0x4003ca5a3586d459	2.473804872681779
1	0x3ff896460d1ed069	1.5366878998293265
2	0xbff85fded9eef0c4	-1.5234058869382787
3	0x40000fd2c63856e8	2.0077262388175434
4	0x3feb3fda9bd74455	0.8515446704642594
5	0x40008af743d3db09	2.0678544329670143
6	0xbfd85d8f1d56b74d	-0.3807103907118872
7	0x3ff9ca3cbecdf99f	1.611874337511473
8	0xbfe7f45a3c402149	-0.7485781838195545
9	0xbfdbc004744a659e	-0.43359481197838956
10	0xbfe8711f7e51499a	-0.7638089625491375
11	0xbffe12cd82a19ce1	-1.879590521124378
12	0xbff2acb0d3c5ae9f	-1.1671608230925938
13	0xbfa7f475d0c64057	-0.046786958441885566
14	0x3fe5e403fb2ab189	0.6840839295960431
15	0xbfee491f1916bf85	-0.9464259614960474
16	0xbfe26a69601d4fff	-0.575489700053822
17	0x3fd3084b94265753	0.2973813006186578
18	0x3f9db1908d2a6a06	0.02899766790015159
19	0xbffdf470c28168fa	-1.8721778486129197
20	0x3fc635c699f6965c	0.17351610677467277
21	0x40093d44ea54610c	3.1549166018486456
22	0x3fef4c8e68d25d69	0.9780952498721663
23	0xbff4758a9185b493	-1.2786966022934265
24	0xbfd1a8632dee2fe6	-0.27590255246536655
25	0x3ff1ca95745179c6	1.1119589370424463
26	0x3fbe41afb4c9fa3a	0.11818979419511147
27	0x3fc8abebb1f367dd	0.1927466029072197
28	0x3fed415771a9d3fa	0.9142262668598271
29	0xbff349b3725cf1a7	-1.2054933993632433
30	0x3fb8993d229c1512	0.09608823866809171
31	0x3fe141798eea8986	0.5392425338107365
32	0xbfec25285dddd10c	-0.8795358498887551
33	0x3fe6184e56534087	0.6904670415915611
34	0xbff7587f9ad08089	-1.4591060683669943
35	0xbff30b03f9801b98	-1.1901893373594472
36	0x3fe036d76e07c494	0.5066945218114989
37	0xbfe477e89f764956	-0.6396372904294292
38	0xbfe0f5237920e505	-0.5299241414824399
39	0x3ff1d12bb5465922	1.1135670739218502
40	0x3ff7679d734e6000	1.4627966407915665
41	0x3ff2df7685d2a963	1.1795563914734764
42	0xbfb62dff9f1fd61f	-0.08663938174125761
43	0xbff0221bf37c5878	-1.0083274375115518
44	0xbfe3dce775d70c5c	-0.6207158376277095
45	0xbffec579faffd79b	-1.923212032762854
46	0xbff14bac3402854b	-1.080974772609198
47	0xbfff5bba2c49f4c9	-1.959894345286829
48	0xbfe15ee3dc2cb2cf	-0.5428332615170691
49	0x3fb1b29461bd6775	0.06913115869738624
50	0x3fc1c14669f3d8ae	0.13871078656638275
51	0xbfe16a052b15e938	-0.544191917563956
52	0xbff128b09c3f00d7	-1.0724340537417925
53	0xbfc741f4cc8d2946	-0.18170032489644877
54	0xbfa388f847b40d60	-0.03815437197956828
55	0xbfc9d1eaa8b8ade0	-0.20171864736890566
56	0xbfe54a0bfec401f8	-0.6652889228717518
57	0xbfd9d780fbe8d5d7	-0.40377831078089116
58	0xbff79e7427058ae1	-1.4761849903376787
59	0xbfcddfddd2cd9412	-0.233394363337681
60	0xc00781e9ae7c42d0	-2.93843399349894
61	0xbfc42c7b239f49e8	-0.15760745276800425
62	0x3fea6fd1c0d7abac	0.8261498228506432
63	0xbffcca890726c7ec	-1.7994470862727168
64	0xbfd3c06ce62a05ee	-0.3086197135636145
65	0xbfe8ee2a528ae2f6	-0.7790729152830795
66	0x3feef1705a572eed	0.9669725193466242
67	0xbfe277e1569c2972	-0.5771338168718059
68	0x3fd1cd8d44f152a0	0.27817088825876546
69	0xbfd743c1b3b47a8a	-0.36351053761783503
70	0x3fd2ad02e0e1b65e	0.29180976830580174
71	0xbfef757d18c58da9	-0.9830918773481488
72	0xbfb13441228dd8b7	-0.06720358937841096
73	0x4002aa2498e8690e	2.333077616303064
74	0xbfeb7c8293462d6d	-0.8589489819000115
75	0xbff5948dab88d5bc	-1.3487679195944642
76	0xbfb433d076ca930d	-0.07891562366655709
77	0x3feb870939d19f35	0.8602338914178974
78	0xbfeabfe37ba545a0	-0.8359239020302773
79	0xbfd6ce6693724256	-0.3563476982026591
80	0xbfdcadfffdcff015	-0.44812011515000566
81	0xc001024bb73ca526	-2.126120978868715
82	0xbfec4821f203794c	-0.8838052489116222
83	0xbff09ac3ce19596d	-1.0377843905203818
84	0x3fe11a892614b2fe	0.5344892257467959
85	0x4000c94da367696b	2.098292614549043
86	0x3fccd8fd4c414c87	0.22537199233429225
87	0x3feb16de6f19ae0b	0.8465416116645782
88	0x3ff83c516dcecdb1	1.5147260941856582
89	0xbfabe128270dcd6d	-0.054452185408900934
90	0x3fed7632cb9f8975	0.9206785180106595
91	0xbfd52706b61959f6	-0.3305069711981611
92	0x3fd4997306941c12	0.3218658031696019
93	0xbfc34e3fb8d79124	-0.15082546735278257
94	0x3ffa66edaf0158f5	1.650129016508399
95	0xbff12c1dc008314a	-1.0732705594301302
96	0x3ff66095975ba06b	1.3985801613253226
97	0xbfe7468f79f6146e	-0.7273633367591523
98	0xbfe767159d64b6b5	-0.7313335489358993
99	0x3ff0ac16a52c0231	1.042013783648269
100	0x3fcd9e712f55cc19	0.23139777003561404
101	0x3fef5c47c3f25882	0.9800146891673338
102	0xbff7c4300e9a659a	-1.485397393268022
103	0xbfd3d0dad3a651a8	-0.30962248486437227
104	0xbfea2bfee13ac25f	-0.8178705595983721
105	0xbfd36f052b4ce8b4	-0.3036511347633095
106	0xbfd957b53a91afa6	-0.39597826690327975
107	0x3fdc8cb4aa4b9e66	0.44608799581917535
108	0x3fc0f12fc5ac881c	0.13236043121384078
109	0x3fb7c622e8bfda7e	0.09286707098349642
110	0xc0019a1570c59893	-2.200236207037116
111	0xbfd328e0e4b800ac	-0.2993700250226634
112	0xbfda3da6a4e3c8c4	-0.41001287558095734
113	0xbff7cf106b28eba4	-1.4880527673655957
114	0xc0017d6ef054aad1	-2.186246755203094
115	0x3fee1b919c98727c	0.9408653315072821
116	0x3fe6ac2e8897d348	0.7085182826836922
117	0x3ff497bd868adf14	1.2870459800305456
118	0x3fa54dc27337a268	0.04160888344251107
119	0xbfcad14bfb168a8f	-0.2095122314468267
120	0x3ff80c3492a0c6f6	1.5029798247964528
121	0x3faae5987762827c	0.052532925198879504
122	0xbfdb2ce278521365	-0.4246145415311758
123	0x3fe26bad8b1a9edf	0.5756442753672352
124	0xc00ed37537cbfd23	-3.853250919258828
125	0xc0062e0457b05a65	-2.772469220227594
126	0x3fce1084243ad631	0.23487903374705035
127	0x3fee9617ee14ae9a	0.9558219575896658
128	0x3fe016924cdfc251	0.5027553082891904
129	0x4008239e0f5b8da6	3.0173913192572455
130	0xbfb21f525f62d917	-0.07079043225062197
131	0x3fce16be78163e27	0.2350690924035785
132	0xbfed26d35d68ea29	-0.9109894585047346
133	0xbfd8e8fe816ec29a	-0.38922083511264705
134	0x3ff747eee05ad0a4	1.4550617946488638
135	0xbfdf4227b8911971	-0.48841279052830716
136	0xbfee87bf7dcabf3b	-0.954070802390539
137	0x3f64fdd5c3101eba	0.0025624442137120703
138	0x3fc5b553c3599ece	0.16959616697862717
139	0x3fe7ee8c0e953bdd	0.7478695187399996
140	0xbfdeb3be135f1a5d	-0.47972061053989085
141	0xbfb2068be440b9fd	-0.07041239092425396
142	0xbf6f8534bbab5888	-0.0038476972525627907
143	0x3fc93719140be762	0.19699395636399247
144	0xbffaec073397ef71	-1.68262405542097
145	0x3ffb0c1bcf117f45	1.6904562080962517
146	0xbfcf8009b158c83e	-0.24609490546714768
147	0xbfee8ebc6b46abeb	-0.9549238295779764
148	0x3fd8e298bc4b5fd9	0.38883036029937795
149	0x3fd44e081c4a93ba	0.31726267588447465
150	0xbff3d7f80112a87c	-1.2402267496022708
151	0x3ff245663d5f8498	1.1419432065379507
152	0xbff167b3e3148aed	-1.0878180380174698
153	0xbffb5666a505ce03	-1.7085939832876427
154	0x3ff1872230b646f8	1.0954915907681748
155	0x400af761e35e2601	3.370792175589259
156	0xbff3d46d47170819	-1.2393620278312538
157	0xbfe05d64d4b80342	-0.5114006189979607
158	0x3fd769b4c91162f2	0.3658267940095775
159	0xbfd7dd343083d855	-0.37287621248049635
160	0x3fe31522789edd37	0.5963299136991854
161	0xbfd02f5d5b35e1fd	-0.2528909102179851
162	0x3fe92a7c441bfdd6	0.7864362077961526
163	0xbfe728ed29cd8820	-0.7237459007703855
164	0xbfd63a8c2b265b04	-0.34732345784998153
165	0x3fe0d7610a8d3907	0.526291390045828
166	0x3fd450befc5edfbf	0.31742834706846773
167	0xbfea194b98f2a401	-0.8155878054868709
168	0xbfd3fb21c1985596	-0.3122028723313063
169	0x3ff09cbfa05e3939	1.038268686712014
170	0x3f3a908939ec6cae	0.0004053435349519835
171	0xbff153f1f94cd857	-1.0829944361007813
172	0xbff13af13cc92a25	-1.0768902182050024
173	0x3fffbfd9d40f37c4	1.984338596684652
174	0x3fed4a2c25c8ae47	0.9153042543379762
175	0xbfe9bdc25c0b4020	-0.8044139669164032
176	0xbfa6183c81f4e76e	-0.04315365873703923
177	0xbfb4b110311382b2	-0.08082677076482517
178	0xbffba962ca20fcc2	-1.728853978696677
179	0xbfdfb1adb24f4f2a	-0.49521963513437817
180	0x3ff343a178741543	1.204011412164008
181	0x3fd1087a07f1e060	0.26614237571584987
182	0x3feab9c33687746c	0.8351760926267509
183	0x3fe428ba74b61308	0.6299717216030283
184	0xbfd71ef7d28bbfbc	-0.3612651401626825
185	0xbff030a2bf1d98eb	-1.0118739572004027
186	0xbfeaf4cb52cc460a	-0.8423821084163035
187	0xbffd09f9e0c2fc92	-1.8149355678322405
188	0xbfed4131e522d949	-0.9142083621325493
189	0x3feb1a73ba870b01	0.8469790118327581
190	0xbfc98db93af1455e	-0.1996375596814159
191	0x3ff851ecaa252ef8	1.5200010916041133
192	0xbfd96556284f9263	-0.3968100923214363
193	0xbffc9b17d8f861d1	-1.787864539661417
194	0xbfeb5e2727e453b6	-0.8552432803286283
195	0xbfbb64ca822202a1	-0.10700669934341046
196	0xbfd1f3ac37e95770	-0.2804976030359887
197	0xbfee6c84eee188a8	-0.9507469812054028
198	0x3fdfb11b82701861	0.4951847814376205
199	0xbfd8fe74bbd80b57	-0.3905307611859618
200	0x3feb14921c7d47c8	0.8462610775406967
201	0xbfff043f977eea5c	-1.9385372083476318
202	0x4005657f0949ea87	2.674558708732835
203	0x3fe5d189981e8958	0.6818283053474188
204	0xbfe58bfa42b001d1	-0.6733371069422508
205	0x3fe3934a4677772c	0.6117297531415935
206	0xbfe2135c3f1987e0	-0.5648633224884598
207	0x3fe882024df689c2	0.7658702395167938
208	0xbfd4a2f99e2d3220	-0.32244720885208444
209	0x3fbca85b64eadb25	0.11194392408183924
210	0xbfe33b19c2ceac3e	-0.6009644322233567
211	0x3fcd714fe4894031	0.23002051028243067
212	0x3fe1b325619d7188	0.5531184107344851
213	0x3fd26fce939c4992	0.2880741540440336
214	0x4001c60eec6693e4	2.221708151703284
215	0xbfe6e2f3da8bdc24	-0.7152041691287008
216	0xbfe87b21cb1c46e3	-0.7650307623864275
217	0x3ff1671c1bf2bff0	1.0876732913711713
218	0x3f951c47e28b5de4	0.020615695192501962
219	0xbfead9852450f579	-0.8390527447988197
220	0xc003e1a73fbe2cb4	-2.4851822833930672
221	0x3ff54f3ba9e53fb1	1.3318440090697374
222	0xbff58def3aa6c322	-1.3471519747801683
223	0xbff7c8b1f19bc674	-1.4864978254157935
224	0xbff00dac6bbb12ce	-1.0033382614357609
225	0x3fbcc16556c3b519	0.11232598655961502
226	0xbfc9f3483cdbd7cf	-0.202736882892792
227	0xbfee3e68b9a8e9f4	-0.945118296257816
228	0x3ffa88c9e31556e2	1.6583956594890243
229	0xbff558c5cb305d08	-1.3341730057780428
230	0xbff1a91157ae33ac	-1.1037763047236053
231	0xbff994d42a9ed81b	-1.5988351502287574
232	0xbfb6569678483f46	-0.08725872456147696
233	0x3fd937e30bccb6ab	0.3940360656004979
234	0x3ff3248228c802f2	1.1964131920832952
235	0x3fdc463448c34d00	0.44178492646933876
236	0xbfc94deb531d0888	-0.1976904064013676
237	0x3fcb919939eea5d6	0.21538081482621746
238	0x3fe5fc6d21a4e192	0.6870637566672022
239	0x3feaeb90add12177	0.8412555117475183
240	0xbfecfb22db42ef5f	-0.9056562693071831
241	0x3ff8e2254c02ff81	1.5552113503653973
242	0x3fb10330c5dcee0d	0.06645493345870808
243	0x3ffcacc2b2462e0d	1.7921778644403077
244	0x3ff0efa82875886a	1.0585099773820965
245	0xbfa033d6adef6280	-0.03164549706679498
246	0xbfc9b55f1ee212ac	-0.20084752090419522
247	0x3fe1550d829002f0	0.5416324186372474
248	0x3f93da029c4624b2	0.01938633040257249
249	0x3ff45560c923822a	1.270844255159441
250	0x3ff8d055532071fd	1.55086262198813
251	0xbfa636040e6e6719	-0.0433808581939969
252	0x3ff4d02393b6d895	1.300815178879508
253	0xbffa12a86afd7093	-1.6295551471039615
254	0x3ff0f07d30bf470b	1.0587131408869392
255	0xbfda54d6dbe1760c	-0.41142817948079435

b f8 [10]
0	0xbf9d2de463090f4b	-0.0284953771063237
1	0xbf8567ade1fd8a2a	-0.010451658686808935
2	0x3fcb77e0d63725b5	0.2145958944295622
3	0x3fb6a43bd2dedf9b	0.08844350717742915
4	0x3f93b9b45f58f22a	0.019263094253107273
5	0xbfb0774d12dbe4bc	-0.06432038984702876
6	0xbfc827684fb14473	-0.18870262042267746
7	0xbfb79d7cd9540a4f	-0.0922468214594485
8	0x3fda830c03244729	0.4142484694176454
9	0x3fe8c4ada7ae1892	0.774008586406824
