DEEP-L/student_tp2/checkpoints/question_checkpoint_20251013-222242.pt (torch, 407645 bytes, 3 tensors)

decoder_b f4 [784]
00000000: 5c28 7dbd c23f 6fbd fc0d 81bd 440f 82bd
00000010: d3d2 70bd 13db 75bd 58ad 82bd ec4a 7dbd
00000020: 531d 86bd a100 71bd ff8d 73bd 2a04 6fbd
00000030: e60c 66bd 00d7 7bbd aa9e 70bd 37ff 76bd
00000040: a12e 6ebd e40b 67bd ac45 77bd fecd 62bd
00000050: 9b97 6fbd 8023 65bd 00e5 6cbd 9ebf 77bd
00000060: c67e 6cbd 7b9c 70bd ff88 71bd 420e 6cbd
00000070: 7644 6ebd ec63 81bd e2b8 70bd c33a 6dbd
00000080: e23e 6dbd ccba 70bd 9c1a fcbd d401 f2bd
00000090: b872 10be 8989 2cbe afcf 76bd 4286 6abd
000000a0: 8af6 56bd c403 63bd 790f 3cbd 716a 67be
000000b0: b227 77bd 7b16 69bd b659 a3be f295 58be
000000c0: 3cef 0bbe 351f ffbd 9574 7bbd ddb0 7bbd
000000d0: 2506 78bd f30d 76bd eb9a 6ebd 91f4 73bd
000000e0: 7881 75bd 6255 7abd 319f 7dbd c5ee 73bd
000000f0: 8194 e2bd 2258 9ebd 8551 b2bd 993a 19bf
00000100: 9f89 94bd 6c73 e5bd 30c0 2bbe 2b53 49be
00000110: 7b09 73be 21c1 8abe e8b5 89be be53 97be
00000120: 68f9 81be 6a41 5abe 0edf 47be 2b37 29be
00000130: c2b1 f4bd 13cd 87bd 083e 08bf 5b7e e9be
00000140: c71b 42be 2f86 c6bd e7f5 70bd 5aa9 64bd
00000150: e423 69bd 5fa0 63bd afaa 70bd bc48 8abd
00000160: 0cc1 b7bd 3b56 85be 71b8 3abd bb80 9bbd
00000170: 403b 30be f219 95be 501b d4be 3b30 fabe
00000180: 22ce 0dbf 25ff 25bf 4ccd 3bbf 5a32 3abf
00000190: 16fc 38bf f490 1ebf f96a 07bf 6f25 dbbe
000001a0: 2164 abbe 3bf8 77be 0dbd 08be 6bec 48bd
000001b0: 236a f7be 6ea4 17be 7e54 6abd c2cd 73bd
000001c0: a477 73bd ad5a 77bd 0b60 7ebd 6b9f c0bd
000001d0: db55 89be 35bb 94bd 13f6 19be 9fd4 94be
000001e0: 331b febe 4696 32bf 482b 61bf 756d 87bf
000001f0: 16c8 98bf bd2a a8bf e570 aebf 85e3 b1bf
00000200: 6a46 b8bf 0c08 aebf 28e2 96bf d1e2 70bf
00000210: 403f 44bf 267f 13bf 1af3 c1be b599 84be
00000220: 4860 cfbd 323e 00bf ae8b 28be 12f2 7dbd
00000230: 13a5 70bd ee27 73bd 4e69 8dbd dbd8 c1bd
00000240: 52b0 1ebd caa1 44be 4739 c1be 369e 27bf
00000250: 3ceb 72bf f59d a0bf 49ea b7bf 2217 d7bf
00000260: e655 f1bf f4c9 04c0 6c56 0bc0 ecc8 0ec0
00000270: 1270 09c0 4108 02c0 c74c ebbf d27c c9bf
00000280: 1bad a9bf 6b66 84bf 3dc6 3ebf c4a3 f8be
00000290: 26d4 7fbe eb36 cabd 8015 d6be 66fe 75bd
000002a0: be53 77bd 5a8d 6abd 7315 20be c570 dabe
000002b0: 183d 05be 57c8 b6be 5cbd 2cbf 0ec4 83bf
000002c0: 20ec aebf b639 d0bf 1e02 f8bf 846f 0ec0
000002d0: d99e 1ac0 2635 21c0 0ffd 29c0 34cb 2ac0
000002e0: 4f58 28c0 a0b7 20c0 0523 14c0 4ef5 04c0
000002f0: 0d26 e2bf ee82 bebf fc22 8ebf 3a25 31bf
00000300: 66ad cbbe 50bc 4fbe 64d8 12bf 1621 34be
00000310: b539 7cbd 113d 03be fdcb 95be 1a2b adbd
00000320: efb8 65be 23ed 09bf 5431 67bf 3a1d aabf
00000330: 2e6a cdbf 8d20 f0bf 306e 0dc0 efb8 1ac0
00000340: d14b 24c0 e985 26c0 ed28 28c0 0cc2 28c0
00000350: 56fe 28c0 0aef 23c0 8236 22c0 4f0c 16c0
00000360: 019d 04c0 3df4 e4bf aa93 b2bf 6818 62bf
00000370: 4eb7 07bf de8f 99be c98b efbd 279b e4bd
00000380: c9dd 6fbd 255a a5be a668 84bd 18e2 15be
00000390: c096 b0be 702b 32bf b427 90bf 2460 bdbf
000003a0: 4eb2 e4bf 2be4 07c0 c187 16c0 48bb 1ec0
000003b0: f13b 20c0 8cc7 1fc0 0090 1ac0 687e 18c0
000003c0: 3809 18c0 bcc0 19c0 55cb 1cc0 46a0 19c0
000003d0: 1ada 0dc0 673a f6bf 2ade c0bf 77ba 7bbf
000003e0: b221 12bf a512 acbe 8d2b edbd af61 06be
000003f0: 28e5 4fbd 1bb0 d9be 784a c4bd 64b4 53be
-0.061806068 -0.058410414 -0.063014954 -0.06350568 -0.058794808 -0.06002338 -0.06380719 -0.06183903
-0.06548562 -0.05883849 -0.05946159 -0.05835358 -0.056164645 -0.061484337 -0.058745064 -0.060301986
-0.058149938 -0.056407824 -0.06036918 -0.05537223 -0.05849419 -0.05594206 -0.05783558 -0.060485475
-0.057738088 -0.05874298 -0.05896854 -0.057630785 -0.05817076 -0.06317887 -0.058770068 -0.057917368
-0.057921298 -0.058771893 -0.12309763 -0.11816755 -0.14106262 -0.1684934 -0.060256656 -0.057256944
-0.05248121 -0.055423513 -0.045913193 -0.22599198 -0.06034059 -0.056906205 -0.31904382 -0.2115095
-0.1366548 -0.12457124 -0.06139048 -0.061447967 -0.060552735 -0.060071897 -0.05825321 -0.05955941
-0.059937924 -0.061116584 -0.061919395 -0.05955388 -0.11063481 -0.07731654 -0.08706955 -0.5985504
-0.07252812 -0.112036556 -0.16772532 -0.19660632 -0.23734085 -0.2710047 -0.26896596 -0.29556078
-0.25385594 -0.21314016 -0.19518682 -0.16524951 -0.11947967 -0.06630912 -0.5321965 -0.45604214
-0.18955909 -0.09693562 -0.05882826 -0.05582557 -0.056918994 -0.055572864 -0.058756527 -0.06752154
-0.08972368 -0.2604235 -0.045586053 -0.07592913 -0.17210102 -0.29121357 -0.41427088 -0.48864922
-0.5539266 -0.64842445 -0.73360133 -0.7273308 -0.7225965 -0.6193993 -0.528976 -0.42801997
-0.3347483 -0.24215786 -0.13353367 -0.04905359 -0.48323163 -0.14808819 -0.057209484 -0.059522398
-0.05944027 -0.06038921 -0.062103312 -0.094054066 -0.26823315 -0.072622694 -0.15035276 -0.29068467
-0.49630126 -0.6976055 -0.87956667 -1.0580279 -1.1936061 -1.3138043 -1.3628203 -1.3897558
-1.4396489 -1.3596206 -1.1787767 -0.94096094 -0.7665901 -0.5761589 -0.37880784 -0.2589852
-0.10125786 -0.500949 -0.16459534 -0.061998434 -0.058751177 -0.05936425 -0.06904851 -0.0946519
-0.03874237 -0.19202343 -0.37739012 -0.65475786 -0.9489019 -1.2548205 -1.4368373 -1.6803935
-1.8854339 -2.0748262 -2.1771498 -2.2310133 -2.1474652 -2.0317538 -1.8382806 -1.5741217
-1.3255953 -1.0343755 -0.7452124 -0.48562443 -0.24983272 -0.09873756 -0.41813278 -0.060057066
-0.060382597 -0.05726371 -0.15633182 -0.4266416 -0.13011587 -0.35699722 -0.6747644 -1.0294206
-1.366581 -1.6267612 -1.9375646 -2.2255564 -2.4159453 -2.518869 -2.6560705 -2.6686525
-2.63039 -2.5112076 -2.3146374 -2.0774722 -1.7667862 -1.4883707 -1.1104426 -0.6919743
-0.3978073 -0.2028668 -0.57361436 -0.17590746 -0.06157847 -0.12816264 -0.29257193 -0.084554866
-0.22433828 -0.53877467 -0.90309644 -1.3290169 -1.6048028 -1.8759934 -2.2098503 -2.4175375
-2.5671275 -2.6019232 -2.627498 -2.6368437 -2.6405234 -2.5614648 -2.534577 -2.3445013
-2.0720828 -1.7887036 -1.3951313 -0.8831849 -0.53014076 -0.29992574 -0.11696584 -0.111624055
-0.05856112 -0.32295337 -0.064652726 -0.14637029 -0.34490013 -0.6959753 -1.1262116 -1.4794965
-1.7866914 -2.1233013 -2.3520358 -2.4801807 -2.5036585 -2.4965544 -2.415039 -2.3827152
-2.3755627 -2.4023886 -2.4499104 -2.4004073 -2.2164369 -1.9236573 -1.5067799 -0.983314
-0.57082665 -0.33607975 -0.11580572 -0.13123201 -0.05075565 -0.4251717 -0.09584516 -0.20674282

encoder.weight f4 [128, 784]
00000000: 79cc 8ebd a13b a4bc 92d0 90bc a643 b1bd
00000010: 0589 27bd 85b6 1abd b7b3 2ebd 41c0 a2bd
00000020: 554f a1bc ab3a 87bd 9293 34bd 8adf 6bbd
00000030: 0e35 61be b7d6 29be 3456 5e3d aa32 91bd
00000040: 7ce3 07bd 9182 91bd f1e7 36bd 9daf 0abd
00000050: 893c 79bd db76 88bc 0935 99bd 374d 85bd
00000060: 1d21 03bd 0c74 9ebd cb30 9abd 4279 80bc
00000070: afc8 3ebd 640c 98bd 06f9 a6bd dc48 03bd
00000080: 2009 883d 7e37 343e e707 fb3c 2daa a03d
00000090: 3a9d 1ebe 9fd5 c0bd c844 93bd 0115 4a3e
000000a0: 5a99 9d3e 34d4 2b3e e5c6 87bd 1d63 b73d
000000b0: 2e4c c2bd d728 123d dd5a 853a 9e79 083d
000000c0: 9540 e63d c3f7 c0bd fa6b 26be 732d aabe
000000d0: 552c 8dbd 62e8 83bd dcee 35bd 1fb8 64bd
000000e0: 7db0 83bd b552 a0bd 6fb6 c7bc 2f61 d9bd
000000f0: 57a5 3ebe d2fc 0a3e b586 b0be 9657 a13d
00000100: 1915 a73e 5bfd a6bd f824 52bd 2075 0f3e
00000110: 7e92 873e 1f40 ba3d 42e1 a6ba 48e6 f1bd
00000120: f98b a339 377e c73b cf1d 07be 0dc8 433e
00000130: 1070 b43e e2bb b63d 9ac1 25be e565 513e
00000140: 3a2e 77be 86f3 a0be 34b5 36bd 79a9 1fbd
00000150: 0bbd 9fbd 2d59 a2bd b109 f0bd 8906 973d
00000160: db35 75be 6641 60be 1283 01bd 5bcd 1b3e
00000170: c4cb 7f3d 3f6d 14be 1b94 c3bd 15e8 83bd
00000180: 914a cbbd 1382 81be 1cce a9be 8f50 22be
00000190: 6402 573d 1e73 e0bb f064 2f3e 7393 953e
000001a0: 63fc 323e fe13 33be e5f7 93be d87e 02be
000001b0: 07c6 2c3e 0835 bdbe e073 0e3e 1e58 56bd
000001c0: 7c7e 92bc 56b5 3dbe b6a5 89bd 825a 8b3e
000001d0: f2da 90be 0989 313c 3ad0 6c39 24ce 06bd
000001e0: 3ec3 d7bd a867 8fbe 3dca 9fbe c1c6 32be
000001f0: 7142 d1bd d581 64bd b520 43bd ec4c 6bbb
00000200: 2cbe a3bc de12 46be 1164 80be 4caa 6ebc
00000210: ed85 403c 8ff0 7ebd f43f c3bd 67c2 fcbd
00000220: 81e8 c63c 3f20 c93e 9192 ecbd 34a7 14bd
00000230: 8c53 97bc f04d 51bd 9a2e 53be cbc4 a7bc
00000240: 6121 193e 3dac ddbd 5961 79be 7d89 a6bd
00000250: 6bef 6a3d 9bbc 873c a7dc 5d3d d2de 3a3d
00000260: fd7d a63d dfe2 543e 124f 8d3e aae5 de3d
00000270: 39c2 6abc 6853 04bc 0415 91bc 17c2 a93b
00000280: 7e0f 3f3d 5131 a13d a361 50bd cc2e 18be
00000290: ff9e dabd e765 84be 6ab1 d0bd 09ff 0e3d
000002a0: 80d6 79bd ff1a 05be e7cd a13e 17a7 1dbd
000002b0: c60b d93d e179 fbbc d7ce c9bd f42b e9bc
000002c0: 2c72 053e 9647 543e b5fe 8d3d 25b5 59be
000002d0: 27f6 c4be 6267 95be 0a12 41be 7bee 62be
000002e0: 0120 28be 4b47 f437 1f44 c13d 08aa 043e
000002f0: 394b d93d 8c60 7e3b cd77 0ebe 9b25 27be
00000300: 5e4e 91be c3f8 b7be f44b 4e3d 8b5a 8f3d
00000310: 96f8 323d a959 1abd d3e5 25be f2a7 19be
00000320: e888 313d ff33 f1bd 1ff2 1cbe 71b6 47be
00000330: b61e 24bd db7a b63d 2a3a 95bd 3b4f c9be
00000340: dbb5 02bf add9 96be 408d 54bb 9948 083e
00000350: 79cf 233e 4d84 d43d 7c65 ef3c 06f6 a73d
00000360: f12b 233e 11b5 223d 6950 87bd a10a 473d
00000370: 0087 d63c 8503 9cbd 08ad 743d 6be0 cdbc
00000380: a4ed 763e fc7b b93e 3757 e03d a8de 63be
00000390: 02ff be3c 4cd4 48be 1bf1 aebe 0426 a8be
000003a0: b521 0fbe d99f 023d 92cc ff3c a850 6fbd
000003b0: d33a ccbc 23c2 453e 14c8 c23e 4115 b63e
000003c0: 51a1 893e 5e98 213d 52d2 5bbe 27f1 b6bd
000003d0: fd15 b73d d880 e5bc 63d0 02be 2954 773c
000003e0: 9e71 a93d d251 14be d822 253c 8ad8 953c
000003f0: 3bc7 023e 43e3 9bbd 8eff 7a3d b8f3 2b3c
-0.06972594 -0.020047965 -0.01767758 -0.08655481 -0.040902156 -0.03777172 -0.04265186 -0.07946826
-0.019691149 -0.06602987 -0.044086047 -0.05758623 -0.21992895 -0.16585813 0.05428143 -0.070897415
-0.03317593 -0.07104982 -0.04465479 -0.033858884 -0.060848746 -0.016658237 -0.07480819 -0.06508868
-0.032014 -0.07736978 -0.07528838 -0.01568282 -0.046578106 -0.07424238 -0.08152966 -0.032051906
0.066423655 0.17599294 0.030643417 0.078449585 -0.15489665 -0.09415745 -0.07190853 0.19734575
0.3078106 0.16780168 -0.06629733 0.08954451 -0.09487186 0.03568348 0.0010174174 0.03331911
0.11242787 -0.09422257 -0.16252127 -0.332378 -0.06893221 -0.06440808 -0.044417247 -0.055839654
-0.06430147 -0.07828275 -0.024378983 -0.106142394 -0.1861776 0.13573006 -0.34477773 0.07878034
0.32633284 -0.081537925 -0.051304787 0.14009523 0.26478952 0.090942614 -0.0012731927 -0.11811501
0.0003119407 0.006088044 -0.13194965 0.19119282 0.35241747 0.089225546 -0.16187134 0.20449026
-0.24138728 -0.31435794 -0.044606403 -0.03897998 -0.07799729 -0.07927165 -0.117205985 0.07374293
-0.23946325 -0.21899948 -0.03161914 0.15215056 0.062450185 -0.14494799 -0.09549733 -0.064407505
-0.09926332 -0.2529455 -0.3316506 -0.15851043 0.052492514 -0.0068496605 0.17128348 0.29214057
0.1747909 -0.17488095 -0.28900066 -0.127437 0.16872416 -0.36954522 0.1391139 -0.05233013
-0.017882578 -0.18526205 -0.0672106 0.2721749 -0.28292042 0.010835894 0.00022584284 -0.032911435
-0.10535286 -0.2800877 -0.31208983 -0.17458631 -0.10217751 -0.05578788 -0.047638614 -0.0035904003
-0.019988142 -0.19343135 -0.25076345 -0.014566969 0.01175068 -0.062241133 -0.095336825 -0.12341767
0.024280788 0.39282414 -0.11551393 -0.03629227 -0.018472455 -0.051099718 -0.20623246 -0.02047958
0.1495414 -0.108238675 -0.24353541 -0.081316926 0.057357233 0.016569426 0.05416551 0.045622654
0.08129499 0.2078967 0.27599388 0.10883649 -0.014328533 -0.008076526 -0.017710216 0.005180608
0.046645634 0.078707345 -0.050874364 -0.14861602 -0.10674857 -0.25858995 -0.10190089 0.03491119
-0.06099558 -0.1299858 0.31602404 -0.038489427 0.10597949 -0.030697765 -0.09853905 -0.028463341
0.13031834 0.20730433 0.06933347 -0.21260507 -0.3846905 -0.29180437 -0.18854538 -0.22161286
-0.16418459 2.9120265e-05 0.09436821 0.12955487 0.10610051 0.003881487 -0.13912888 -0.16322939
-0.28380102 -0.35931978 0.050365403 0.069996916 0.0436941 -0.037683163 -0.16200952 -0.15005472
0.043343455 -0.117774956 -0.15326737 -0.1950319 -0.04006835 0.089101516 -0.072864845 -0.3931826
-0.5105874 -0.29462948 -0.0032432824 0.13308944 0.15997113 0.10376797 0.029223196 0.08201222
0.15934731 0.03972346 -0.06607134 0.04859412 0.02618742 -0.07617859 0.059735328 -0.025131425
0.2411409 0.36227405 0.10954135 -0.22252905 0.023314957 -0.19612235 -0.34168324 -0.32841504
-0.13977702 0.031890724 0.031225476 -0.05842653 -0.024930393 0.19312339 0.38043272 0.3556309
0.26880887 0.03945195 -0.2146695 -0.08932715 0.08939741 -0.028015539 -0.12774806 0.015095749
0.08273624 -0.14484337 0.010079108 0.01829173 0.12771313 -0.07611706 0.061278872 0.010495119

encoder.bias f4 [128]
00000000: d8e2 8040 4fba 1a40 b960 0540 6e23 6c40
00000010: 474b 8340 19d1 e1be 5431 9540 515d 753f
00000020: d6a7 7340 7956 8840 0d22 47be 6e74 8b40
00000030: 4aa5 bebf 0d28 6240 b45c 1f40 631d 7840
00000040: 5002 8e40 a1ec 4a40 33f1 5640 8f7e 0e40
00000050: 1869 7b40 1b03 8a40 996e ab3e b105 7640
00000060: d418 0540 2a1f 7140 48dd 8340 592e 9dbf
00000070: 020c 1b40 126c 75bf efc9 5940 1396 423e
00000080: 8be1 9740 c4dd 1540 abea 6340 c6fe 9040
00000090: 0a03 c93f 38ba 6f40 daa0 ae3f 79f4 9340
000000a0: 5100 ad3f 2427 7bbf 310f 523f 4e93 f5bb
000000b0: 808e 5e40 de8a 8740 b7d9 6640 65a6 8e3f
000000c0: 465b 6e40 c352 3a40 9986 cb3f 8850 0240
000000d0: f44c 8340 3948 0b40 0e87 1a40 774b 2240
000000e0: 1d25 22bf 7276 5e40 5c42 033f ee60 0740
000000f0: 1c1c 303f f47c aa3e 85e4 6240 c8e8 7840
00000100: de82 e73e 0ce9 683f e462 3340 4046 a73f
00000110: 1f46 7940 bfb7 6440 f39c 7f40 1d06 8540
00000120: 6fad 9540 8349 8540 4981 9440 b1ba 9740
00000130: 231e 7240 54f6 ba3f 8aa4 cc3d e5b1 8b3f
00000140: 635c 6240 987e d13e 980f a33e 9f31 4c40
00000150: 5aa8 5540 2edd 6f40 df2d 8040 de4d 9140
00000160: 00e5 8840 339f 9340 9b3e 9040 8110 9340
00000170: b451 8f40 9b16 6b40 6314 4c3b 7ff5 5d40
00000180: 60e2 7c40 f8a4 74bf 8b5b 5f40 813b 9140
00000190: 1f4a 6140 d930 9140 05d8 0740 41b4 2940
000001a0: 45d2 bf3f b47c a640 a972 9140 9570 3a40
000001b0: f693 7e40 17ca cd3e fee9 8940 ad69 e63f
000001c0: 7259 8840 f863 343f 6d20 6140 a8d1 b23f
000001d0: e91c 5e40 ac97 7d40 852d 7640 78e1 473f
000001e0: 8e94 2d3f 0e45 4740 f921 6e40 de12 8440
000001f0: 5f6e 0440 7ef6 243f 7965 9240 4e22 9640
4.027691 2.4176214 2.0840285 3.6896625 4.102939 -0.4410484 4.6622715 0.95845515
3.807119 4.2605557 -0.19446583 4.3579626 -1.4894192 3.5336945 2.4900331 3.8767936
4.4377823 3.1706927 3.3584716 2.2264745 3.9282894 4.312879 0.33482817 3.8440974
2.0796404 3.767527 4.120762 -1.2279769 2.422608 -0.9586803 3.40295 0.19002561
4.746282 2.3416605 3.561198 4.5311003 1.5704052 3.745741 1.3642838 4.623593
1.3515722 -0.981066 0.8205443 -0.0074943667 3.4774475 4.2357016 3.6070383 1.114453
3.724321 2.9113014 1.5900451 2.0361652 4.1031437 2.1762831 2.414493 2.535856
-0.6333788 3.4759793 0.5127313 2.115291 0.6879289 0.33298457 3.5451977 3.8892078
0.4521703 0.909806 2.8029108 1.3068314 3.8949049 3.573715 3.9939544 4.1569963
4.677421 4.1652236 4.640782 4.7415395 3.7830894 1.4606423 0.09992321 1.0913664
3.5368888 0.40916896 0.31847835 3.1905286 3.3384004 3.7478747 4.0055995 4.5407553
4.277954 4.6131835 4.5076423 4.5957646 4.4787235 3.6732547 0.003114008 3.468109
3.9513168 -0.9556422 3.4899623 4.5385137 3.520149 4.537213 2.1225598 2.6516268
1.4986044 5.2027225 4.5452466 2.9131215 3.9777808 0.40193245 4.3098135 1.8001
4.2609186 0.7046504 3.517604 1.3970232 3.4705145 3.9623823 3.8465283 0.78078413
0.678048 3.1135898 3.7208235 4.127303 2.0692365 0.6443862 4.574887 4.6916876
