DEEP-L/student_tp2/checkpoints/question_checkpoint_20251013-150324.pt (torch, 407645 bytes, 3 tensors)

decoder_b f4 [784]
0	0xbd71311f	-0.058884736
1	0xbd599246	-0.053118013
2	0xbd77f4f7	-0.06053635
3	0xbd76c38a	-0.060245074
4	0xbd706817	-0.058693018
5	0xbd5b38ae	-0.05352085
6	0xbd63a361	-0.055575732
7	0xbd62e13b	-0.055390578
8	0xbd73ff58	-0.059569687
9	0xbd850e46	-0.06496863
10	0xbd642367	-0.055697825
11	0xbd5eb805	-0.054374713
12	0xbd5d1501	-0.05397511
13	0xbd6b416f	-0.05743545
14	0xbd644864	-0.0557331
15	0xbd72c4de	-0.05926978
16	0xbd687ca2	-0.056759484
17	0xbd77fdae	-0.060544662
18	0xbd6da3fb	-0.058017712
19	0xbd6c8078	-0.057739705
20	0xbd6d75fd	-0.05797385
21	0xbd5de5c3	-0.054174196
22	0xbd6fc461	-0.05853689
23	0xbd6c5da6	-0.057706498
24	0xbd5e5af0	-0.054285944
25	0xbd6b0adc	-0.057383403
26	0xbd57fb61	-0.052729968
27	0xbd6fde04	-0.05856134
28	0xbd68965e	-0.056784026
29	0xbd6aa827	-0.05728927
30	0xbd67d6ae	-0.05660122
31	0xbd6f16b3	-0.058371257
32	0xbd63e28f	-0.055635985
33	0xbd7966f3	-0.060889196
34	0xbd713693	-0.058889937
35	0xbda4b612	-0.0804254
36	0xbdfc7370	-0.123267055
37	0xbeff890e	-0.49909252
38	0xbd6cc450	-0.057804406
39	0xbf0c20e8	-0.5473771
40	0xbd9cbae6	-0.076528355
41	0xbd90db77	-0.070731096
42	0xbd4b3067	-0.049606707
43	0xbea93ebe	-0.3305568
44	0xbd2f8645	-0.04285266
45	0xbe429a3e	-0.19004151
46	0xbd3d2f9e	-0.04618799
47	0xbde5b8ed	-0.112169124
48	0xbdb540cf	-0.08850252
49	0xbd6c2c9c	-0.05765973
50	0xbd784782	-0.06061507
51	0xbd68015d	-0.056641925
52	0xbd7f6523	-0.06235231
53	0xbd62eee6	-0.055403613
54	0xbd809557	-0.06278484
55	0xbd6686b9	-0.056280825
56	0xbd74a343	-0.05972601
57	0xbd71740d	-0.058948565
58	0xbd64a117	-0.05581769
59	0xbd6e7a8e	-0.058222346
60	0xbda878cf	-0.082261674
61	0xbd8866e2	-0.06660248
62	0xbdcb116d	-0.09915433
63	0xbf4162ab	-0.7554118
64	0xbdb3480f	-0.087539785
65	0xbdf9406e	-0.12170492
66	0xbe1a361a	-0.150597
67	0xbe38165c	-0.1797728
68	0xbe5af1d3	-0.21381311
69	0xbe861976	-0.261913
70	0xbe938a06	-0.2881624
71	0xbe8984dd	-0.2685918
72	0xbe68d08e	-0.22735807
73	0xbe4d0253	-0.20020418
74	0xbe24687e	-0.16055486
75	0xbe050c20	-0.12992907
76	0xbdceb93c	-0.100939244
77	0xbd82e5eb	-0.063915096
78	0xbcea1929	-0.02857645
79	0xbe9805c9	-0.29691914
80	0xbe1627f4	-0.14663678
81	0xbd7c4891	-0.061592642
82	0xbd5e84e2	-0.054325946
83	0xbd5e6fee	-0.054305963
84	0xbd6542de	-0.055971973
85	0xbd547f67	-0.051879313
86	0xbd60ccf1	-0.054882947
87	0xbd7afdb6	-0.061277114
88	0xbdb7aec5	-0.089688815
89	0xbeb7e7e4	-0.35919106
90	0xbd9c4aa3	-0.07631423
91	0xbe06cedb	-0.13164847
92	0xbe6a40de	-0.22876307
93	0xbeb34365	-0.35012355
94	0xbeda0245	-0.42579857
95	0xbf0101b5	-0.5039323
96	0xbf211c5b	-0.6293389
97	0xbf2a2750	-0.66466236
98	0xbf3549ce	-0.7081574
99	0xbf371890	-0.71521854
100	0xbf28b4b8	-0.65900755
101	0xbf11c773	-0.5694496
102	0xbf043cc8	-0.51655245
103	0xbed599fb	-0.4171904
104	0xbea7938d	-0.3272976
105	0xbe6ec1af	-0.23316072
106	0xbe14063f	-0.14455508
107	0xbd5e5d7b	-0.05428837
108	0xbe06a928	-0.13150465
109	0xbe4675f3	-0.19380932
110	0xbd51170a	-0.051047362
111	0xbd69416f	-0.056947168
112	0xbd76bc40	-0.060238123
113	0xbd5c23f0	-0.05374521
114	0xbd6c14fc	-0.0576372
115	0xbd99d65b	-0.07511588
116	0xbee1dc4d	-0.4411339
117	0xbdccf9c0	-0.100085735
118	0xbe449721	-0.19198276
119	0xbea3d841	-0.32000926
120	0xbf0493c7	-0.5178799
121	0xbf3d0948	-0.7384229
122	0xbf6bf343	-0.9216806
123	0xbf8a674c	-1.0812774
124	0xbfa212f0	-1.2662029
125	0xbfb00f7c	-1.3754725
126	0xbfafe7e8	-1.3742647
127	0xbfb109d9	-1.383113
128	0xbfacc3d7	-1.3497266
129	0xbfa09d1b	-1.2547945
130	0xbf92514d	-1.1431061
131	0xbf7aadfd	-0.97921735
132	0xbf4ce67d	-0.800392
133	0xbf17bd90	-0.59273624
134	0xbec4616c	-0.38355577
135	0xbe64b6e4	-0.22335392
136	0xbdbabb7c	-0.09117791
137	0xbf0b53f6	-0.5442499
138	0xbda99169	-0.08279688
139	0xbd6a288d	-0.05716758
140	0xbd71668e	-0.058935694
141	0xbd7ca8bf	-0.061684366
142	0xbd8141e2	-0.06311394
143	0xbe481ae5	-0.1954151
144	0xbd80dd3e	-0.062921986
145	0xbe524bc4	-0.20536715
146	0xbed30152	-0.41211945
147	0xbf2ad7e3	-0.66735667
148	0xbf7502bf	-0.95707315
149	0xbf9ea67f	-1.239456
150	0xbfb919c3	-1.4460987
151	0xbfd94e1c	-1.6976962
152	0xbff724d5	-1.9308115
153	0xc0078dc8	-2.1180286
154	0xc00b5a25	-2.177377
155	0xc00db2df	-2.2140424
156	0xc009ab6d	-2.151088
157	0xc0038df5	-2.0555394
158	0xbfe6a2ab	-1.8018392
159	0xbfcc2237	-1.5947942
160	0xbfb14a12	-1.385073
161	0xbf8028f2	-1.0012496
162	0xbf3b7697	-0.7322783
163	0xbee6a4e9	-0.4504769
164	0xbe6a6a94	-0.22892219
165	0xbdbce30a	-0.09222992
166	0xbedd0ee4	-0.43175423
167	0xbd894da3	-0.06704261
168	0xbd7bddda	-0.06149087
169	0xbd70966c	-0.058737203
170	0xbe4b8637	-0.19875418
171	0xbe776271	-0.24158646
172	0xbe25200a	-0.16125503
173	0xbedb8d68	-0.42881322
174	0xbf31661b	-0.69296426
175	0xbf879b08	-1.0594187
176	0xbfaf9396	-1.3716915
177	0xbfdab631	-1.708685
178	0xbffb115e	-1.9614675
179	0xc00f61f5	-2.2403538
180	0xc01d6c61	-2.45974
181	0xc02677cf	-2.6010625
182	0xc02b418f	-2.6758764
183	0xc02c1b93	-2.689183
184	0xc027fb69	-2.6247199
185	0xc0214929	-2.5200903
186	0xc0175200	-2.36438
187	0xc00888cb	-2.1333492
188	0xbfe723f9	-1.8057853
189	0xbfb92c25	-1.4466597
190	0xbf8abdb2	-1.083914
191	0xbf308ee3	-0.6896803
192	0xbed4490e	-0.41461986
193	0xbe61dbdf	-0.2205653
194	0xbf1a7f0b	-0.603501
195	0xbe054d59	-0.13017787
196	0xbd70771f	-0.058707353
197	0xbde3b95c	-0.11119339
198	0xbec74966	-0.38923186
199	0xbe1c68dc	-0.15274376
200	0xbea253ec	-0.31704652
201	0xbf1eefe5	-0.620848
202	0xbf782724	-0.96934724
203	0xbfab62be	-1.3389509
204	0xbfda5022	-1.7055705
205	0xbffba26d	-1.9658943
206	0xc00c9ee8	-2.1971989
207	0xc01ec4f4	-2.480771
208	0xc02476c0	-2.569748
209	0xc02a0610	-2.65662
210	0xc02d114c	-2.7041807
211	0xc02bac69	-2.682398
212	0xc02c9dd0	-2.697132
213	0xc028673e	-2.6313014
214	0xc02156f8	-2.5209332
215	0xc015c138	-2.3399181
216	0xc00446cc	-2.066821
217	0xbfd931d1	-1.6968328
218	0xbfaa4a47	-1.3303918
219	0xbf627395	-0.88457614
220	0xbef97573	-0.4872242
221	0xbe9899f4	-0.29804957
222	0xbdd5cbe3	-0.10439279
223	0xbd84cb69	-0.0648411
224	0xbd58ab11	-0.052897517
225	0xbd14612a	-0.036225475
226	0xbdb188f7	-0.08668702
227	0xbe71b0cf	-0.23602603
228	0xbee6c46f	-0.45071742
229	0xbf40437e	-0.75102985
230	0xbf8debd4	-1.1087594
231	0xbfca12d8	-1.5787001
232	0xbfeacb23	-1.8343242
233	0xc007f1af	-2.1241262
234	0xc0167cbc	-2.3513632
235	0xc0202754	-2.5024004
236	0xc0209978	-2.509367
237	0xc01cebab	-2.451884
238	0xc01baa9f	-2.432289
239	0xc0194844	-2.3950357
240	0xc0199ff1	-2.400387
241	0xc01c3859	-2.4409392
242	0xc01de75a	-2.4672456
243	0xc01836f3	-2.3783538
244	0xc00e57be	-2.2241054
245	0xbff5027c	-1.9141383
246	0xbfb69c78	-1.42665
247	0xbf746576	-0.9546732
248	0xbf078508	-0.52937365
249	0xbea27daf	-0.31736514
250	0xbde95207	-0.113925986
251	0xbdf9bc92	-0.1219417
252	0xbd7d2424	-0.061802045
253	0xbeca1e37	-0.39476177
254	0xbdf1cea6	-0.11806993
255	0xbe864c77	-0.26230213

encoder.weight f4 [128, 784]
0	0xbda3badf	-0.07994627
1	0xbccf944e	-0.025339272
2	0xbca96ced	-0.020681823
3	0xbd903d49	-0.07042939
4	0xbd8cb2c0	-0.06870031
5	0xbc8d5d97	-0.017256541
6	0xbc76aa70	-0.015055284
7	0xbd9a3233	-0.07529106
8	0xbd89e05c	-0.06732246
9	0xbd208d93	-0.039197516
10	0xbd6dcbfb	-0.05805586
11	0xbc5b3103	-0.0133783845
12	0x3d29f325	0.041491646
13	0x3e9a1767	0.3009598
14	0x3eb1e107	0.34741995
15	0x3d9965da	0.0749013
16	0xbd66ee20	-0.056379437
17	0xbd3e68a5	-0.046486516
18	0xbd3dcadd	-0.046336044
19	0xbcd96831	-0.02653894
20	0xbd64966c	-0.055807516
21	0xbc85f164	-0.016350456
22	0xbd53f57b	-0.05174778
23	0xbcc83645	-0.02443994
24	0xbd83eaa2	-0.06441237
25	0xbcc29dd9	-0.023756908
26	0xbd88eb71	-0.06685532
27	0xbd210944	-0.039315477
28	0xbd3eebde	-0.04661166
29	0xbd718cee	-0.05897229
30	0xbcbbcde7	-0.02292533
31	0xbd81022e	-0.06299244
32	0xbdcab799	-0.098983
33	0xbda8c87d	-0.08241365
34	0x3d8225af	0.06354844
35	0xbe475fe1	-0.19470169
36	0xbdc62630	-0.096752524
37	0x3e084927	0.13309155
38	0xbe58d050	-0.21173215
39	0x3e412419	0.18861426
40	0xbda7cc45	-0.08193258
41	0xbc8b6f10	-0.017020732
42	0xbc50ae7f	-0.012736916
43	0xbdaa691d	-0.0832083
44	0xbd4027ba	-0.046912886
45	0xbc8f2cc3	-0.017477399
46	0x3e336f87	0.17523013
47	0x3c9015e6	0.017588567
48	0x3c38e211	0.011284367
49	0xbd468ebd	-0.04847597
50	0x3def8047	0.11694389
51	0x3db4010d	0.08789263
52	0xbd224719	-0.039618585
53	0xbcf53dd7	-0.029936714
54	0xbda2e8fb	-0.07954594
55	0xbd9e6e3b	-0.077358685
56	0xbd8861cd	-0.06659279
57	0xbd50693d	-0.050881613
58	0x3cd488a7	0.025944067
59	0x3ded4ace	0.115865335
60	0x3e09ebf5	0.13468917
61	0xbf04defc	-0.5190275
62	0xbdfd1369	-0.12357218
63	0xbe009442	-0.12556556
64	0x3e081d7c	0.13292497
65	0x3d46c62c	0.048528835
66	0xbde11025	-0.109894074
67	0xb97e0379	-0.00024224621
68	0x3e28b458	0.16475046
69	0x3ea39803	0.31951913
70	0x3e8bb288	0.27284646
71	0x3d4977a9	0.049186382
72	0xbe6f2054	-0.23352176
73	0xbd4ab196	-0.049485765
74	0x3ed471e4	0.41493142
75	0x3e88a6ff	0.26689908
76	0xbddaf636	-0.10691492
77	0x3c8a58c4	0.01688803
78	0x3e05fc32	0.13084486
79	0x3dd4c5db	0.103893004
80	0xbe4156c6	-0.18880758
81	0xbea5c07a	-0.3237341
82	0xbd504486	-0.0508466
83	0xbd3532ff	-0.044238087
84	0xbd3f69c7	-0.046731737
85	0xbd78a8f7	-0.060708012
86	0x3d930942	0.071795
87	0x3e9f80b0	0.31152868
88	0x3eac40eb	0.33643278
89	0xbe6a3a25	-0.22873743
90	0x3ca468f4	0.020069577
91	0x3d6b09da	0.057382442
92	0x3de15e35	0.11004297
93	0xbe5bdb71	-0.21470429
94	0xbeb83c61	-0.35983565
95	0xbe1bb99e	-0.15207526
96	0x3df2fe41	0.11864901
97	0x3e3528a7	0.17691289
98	0xbd46a944	-0.048501268
99	0xbdf59506	-0.119913146
100	0xbde2ee26	-0.110805795
101	0x3e3037a1	0.1720872
102	0x3e5438e3	0.20724826
103	0x3dccedd6	0.10006301
104	0xbe25d0f8	-0.16192997
105	0xbe138613	-0.14406614
106	0xbdbf5878	-0.09343046
107	0xbe4621e0	-0.1934886
108	0x3e15ff8a	0.14648262
109	0x3b727085	0.0036993336
110	0x3db4b49b	0.0882351
111	0xbd9cbb1a	-0.07652874
112	0xbd1aaf42	-0.037764795
113	0xbcfd92db	-0.030953815
114	0x3ed48d56	0.4151408
115	0xbf0e2ef9	-0.55540425
116	0x3db100e9	0.08642752
117	0xbdf15ff6	-0.11785881
118	0xbc964435	-0.01834307
119	0x3e0731e0	0.1320262
120	0xbdba9393	-0.09110179
121	0xbe640b68	-0.22269976
122	0xbe7fe1c9	-0.24988474
123	0xbe1109a7	-0.14163838
124	0x3dacca62	0.08437039
125	0x3d8ed12e	0.069734916
126	0xbda5cc37	-0.080955915
127	0xbe212b33	-0.15739135
128	0xbe0a5d4b	-0.13512151
129	0xbdd10ae0	-0.10207152
130	0xbe30098e	-0.17191145
131	0xbe7ba16e	-0.245733
132	0xbe5eb39a	-0.217482
133	0xbe1f95cc	-0.15584487
134	0xbdcf45e2	-0.10120751
135	0xbe5443d8	-0.20729005
136	0xbe986623	-0.29765424
137	0x3db3d031	0.08779944
138	0xbe7c5cba	-0.24644747
139	0xbedbff85	-0.42968383
140	0xbce35834	-0.02775202
141	0xbd8d7e84	-0.069088966
142	0x3d445986	0.04793694
143	0xbc9b80a8	-0.018982247
144	0x3c670196	0.014099499
145	0x3e085aad	0.1331584
146	0x3dec7340	0.1154542
147	0x3e53a600	0.20668793
148	0x3d46ca3b	0.048532706
149	0x3c6fe8dd	0.014642921
150	0x3d70d7d3	0.058799576
151	0x3db5b1f7	0.08871835
152	0x3e046e0d	0.12932606
153	0x3e20831d	0.15675016
154	0x3d689323	0.056780946
155	0xbde2a31d	-0.11066268
156	0xbe380106	-0.1796914
157	0xbcf25ccb	-0.029585263
158	0x3dcf8b9e	0.10134052
159	0x3d92901e	0.071563944
160	0x3d10b83c	0.03533195
161	0x3d699e99	0.057036016
162	0xbb7849e2	-0.0037885834
163	0xbdbc0a96	-0.091817066
164	0xbe588995	-0.21146233
165	0xbe526f1c	-0.20550197
166	0x3e0b471f	0.1360135
167	0xbe64c592	-0.22340992
168	0xbcf87d93	-0.030333316
169	0xbdd34bda	-0.10317202
170	0x3d8ec1a3	0.06970527
171	0xbb69329e	-0.0035583149
172	0xbe4c58e3	-0.19955783
173	0xbd384b24	-0.044993535
174	0x3c89fead	0.016845072
175	0xbd150445	-0.036381025
176	0xbdcf3052	-0.10116638
177	0xbc97bee4	-0.01852364
178	0x3c83be18	0.016081855
179	0xbcf18f7c	-0.029487364
180	0xbd3f41e0	-0.046693683
181	0x3d0ea3eb	0.034824293
182	0x3e05fed8	0.13085496
183	0x3d1c0bd7	0.03809723
184	0xbdb03fb7	-0.08605903
185	0x3d659543	0.05605055
186	0x3e8d6405	0.2761537
187	0x3e4681b0	0.1938541
188	0x3e043971	0.12912537
189	0x3e7fa7e5	0.2496639
190	0x3ea5740b	0.32315096
191	0x3e14b741	0.14523031
192	0x3de9a809	0.11409003
193	0x3e05a2d8	0.13050401
194	0xbe883ebc	-0.26610363
195	0xbc794eee	-0.015216572
196	0xbdb6ed3c	-0.089319676
197	0xbe5c5a47	-0.21518813
198	0x3e6b229a	0.22962418
199	0x3d4b8db6	0.049695693
200	0xbe8cdd57	-0.2751262
201	0xbdee6d1c	-0.11641905
202	0xbd7853fc	-0.06062697
203	0xbe388d0d	-0.18022557
204	0xbe343539	-0.17598428
205	0xbd9ab26c	-0.075535625
206	0xbcda4b41	-0.026647212
207	0xbdfc610a	-0.12323196
208	0xbde7f86e	-0.11326681
209	0x3d16c2bd	0.03680681
210	0x3e0a902e	0.13531563
211	0x3c74ffa5	0.0149535285
212	0xbe74362c	-0.2384879
213	0xbe6cd71c	-0.23128933
214	0x3d27d8b0	0.040978134
215	0x3dfa21c8	0.122134745
216	0x3d872e93	0.0660068
217	0x3e415a27	0.18882047
218	0x3e72028b	0.23633783
219	0x3e190c90	0.14946198
220	0x3e4132ae	0.18866989
221	0x3e3dd9ce	0.18540117
222	0x3d1e18da	0.03859792
223	0x3dacc8ba	0.08436723
224	0xbe826262	-0.25465685
225	0xbe643c7d	-0.222887
226	0x3bf8140a	0.007570748
227	0x3ea125a8	0.31474042
228	0xbe2cc46c	-0.16871804
229	0xbdc63784	-0.096785575
230	0x3c14e207	0.009087092
231	0xbcfd2016	-0.030899089
232	0xbd25e919	-0.040505502
233	0xbbd27949	-0.0064231497
234	0xbd3ca115	-0.046052057
235	0xbe135eeb	-0.14391677
236	0xbdbe340b	-0.0928727
237	0xbccc2758	-0.024921104
238	0x3bdcb6aa	0.0067356424
239	0x3cc48c01	0.02399254
240	0xbe004761	-0.12527229
241	0xbe457f86	-0.19286928
242	0x3ab4f92a	0.0013807167
243	0x3dbe13dd	0.09281132
244	0x3abdc71d	0.0014478896
245	0xbd7d83b7	-0.06189319
246	0xbda980e6	-0.082765386
247	0xbe0999d8	-0.13437593
248	0xbe635f60	-0.22204351
249	0xbe4bb44c	-0.19892997
250	0xbca89b0c	-0.020581745
251	0xbe6f316c	-0.23358697
252	0x3a69dabe	0.000892084
253	0xbd427853	-0.04747803
254	0xbd75594e	-0.05989962
255	0x3d76a78a	0.06021837

encoder.bias f4 [128]
0	0x408a4011	4.3203206
1	0x40149456	2.3215537
2	0x409f54fb	4.9791236
3	0x40311b72	2.7673001
4	0xbee30c43	-0.44345292
5	0x401902ad	2.3907883
6	0x407fdbac	3.9977827
7	0xbfea3a89	-1.8299114
8	0x40846ebc	4.1385174
9	0x3f7a3e4d	0.97751313
10	0x408accc9	4.337498
11	0x4085e972	4.1847467
12	0x407e9c86	3.9783034
13	0x3fe3dc5a	1.7801621
14	0x4089a854	4.301798
15	0x40881c6a	4.2534685
16	0x40151002	2.329102
17	0x405e6092	3.4746442
18	0x3fa180dd	1.2617451
19	0x4097056b	4.7194114
20	0x407d0a5b	3.953757
21	0x40586308	3.3810444
22	0x3df2ef1a	0.11862011
23	0x408eb34f	4.4593883
24	0x404acc18	3.168707
25	0x40221db3	2.5330627
26	0x404a8975	3.1646397
27	0x3fb4cb01	1.4124452
28	0x40511771	3.2670557
29	0x406c7cd2	3.6951184
30	0x406b5562	3.6770864
31	0xbea07707	-0.3134081
32	0x403e3314	2.9718676
33	0x4032def8	2.794859
34	0x40800ff5	4.001948
35	0x403238ca	2.7847161
36	0x401badd6	2.432485
37	0x3f1fd253	0.62430304
38	0xbf884175	-1.0644976
39	0x40823a38	4.069607
40	0x3c71871c	0.014741685
41	0x3fc13469	1.5094119
42	0x403ed353	2.9816482
43	0x40857927	4.171039
44	0x40812fd5	4.037089
45	0x4052b926	3.2925506
46	0x409ecf7e	4.9628286
47	0xbeaaee20	-0.333848
48	0x4043963a	3.056044
49	0x400f1181	2.2354434
50	0x406eb5e5	3.729852
51	0xbfaf2c42	-1.3685381
52	0x402bbd2a	2.6834207
53	0x402ebd0c	2.7302885
54	0x406e2e09	3.7215598
55	0x3f480368	0.781302
56	0x3f9936ad	1.1969811
57	0x40117f8f	2.2734106
58	0x40777b42	3.866898
59	0xbf66b0bf	-0.90113443
60	0x40872b19	4.224011
61	0x406d1ef1	3.7050135
62	0x407c7c24	3.945077
63	0xbe36c577	-0.17848764
64	0x4046120c	3.0948515
65	0x3fc77705	1.5583197
66	0x3f0f41d7	0.5595984
67	0x408e1e4c	4.4411983
68	0x403b1fad	2.9238083
69	0x405c4d9e	3.4422374
70	0x3febb2e0	1.8413963
71	0xbcce787e	-0.02520394
72	0x40016f66	2.0224242
73	0x404378f9	3.0542586
74	0x4052cd8c	3.2937956
75	0x4092af46	4.5838957
76	0x4091b882	4.553773
77	0x408bb797	4.366161
78	0x4076f39e	3.8586192
79	0x4077fefd	3.8749382
80	0x3f131d72	0.57466805
81	0x406ffc98	3.749792
82	0x404f5726	3.239694
83	0x404f1337	3.2355478
84	0x40583b65	3.3786252
85	0x402c12b4	2.6886415
86	0x4059bf72	3.40231
87	0x40305d35	2.755689
88	0x40839fff	4.113281
89	0x4091a125	4.550921
90	0x3fbe1878	1.4851217
91	0x3eddb4bd	0.43301955
92	0x408ed207	4.463138
93	0x3fc09d4a	1.5048001
94	0x3f1e979e	0.619501
95	0x40abe8cd	5.372168
96	0x401ade05	2.419801
97	0x4085175e	4.1591024
98	0x4094eecc	4.65415
99	0x40351990	2.8296852
100	0x40616bd0	3.5222054
101	0x40384d9f	2.8797376
102	0x4077c0bf	3.8711393
103	0x4094d58c	4.6510677
104	0x403b82b4	2.9298525
105	0x4087b05a	4.2402773
106	0x3fd894ba	1.6920388
107	0x408dd26c	4.4319363
108	0x40843636	4.1316175
109	0x4099fbff	4.8120112
110	0x40750105	3.8281872
111	0x4067e9c8	3.6236439
112	0x407559d1	3.833607
113	0x4020f8f7	2.5151956
114	0x407cf0fa	3.952208
115	0x40875688	4.229313
116	0x3fa2f22b	1.2730154
117	0x40505566	3.2552123
118	0xbf5c0eba	-0.8595997
119	0x407f2369	3.9865363
120	0x4054f1f1	3.327267
121	0x4040e110	3.0137367
122	0x408cb8f6	4.3975782
123	0x405ce644	3.4515543
124	0x402a990a	2.6655908
125	0x408ce18d	4.402533
126	0xbffbc595	-1.9669672
127	0x405d75a6	3.4603057
